medium_post_results/first_experiment/first_try.pt (torch, 496839 bytes, 10 tensors)

feature_extractor.0.weight f8 [6, 1, 5, 5]
-0.19677865505218506 -0.05164027214050293 0.05599357187747955 -0.01839122176170349 0.14196135103702545 0.041110679507255554 0.19829006493091583 -0.12388020008802414
0.11739303171634674 0.13916458189487457 -0.0013279169797897339 -0.00599023699760437 0.18814422190189362 -0.1726289838552475 -0.07762203365564346 0.11684848368167877
0.04444792866706848 0.04628691077232361 -0.06374911963939667 -0.018621519207954407 0.15778474509716034 0.19256986677646637 -0.15547433495521545 0.18547941744327545
0.10471124947071075 0.11940942704677582 -0.14545974135398865 -0.010918527841567993 0.17912887036800385 0.1254233568906784 0.1892595738172531 -0.05584344267845154
-0.1486779898405075 -0.14873087406158447 -0.11322315037250519 -0.11306526511907578 0.18067096173763275 0.014903455972671509 0.14790226519107819 -0.14694654941558838
-0.08203320950269699 -0.018690183758735657 0.05657438933849335 0.18775387108325958 0.11360205709934235 0.013504818081855774 0.07632984220981598 -0.001294061541557312
0.12283380329608917 -0.1853831559419632 0.1828610748052597 0.19977430999279022 0.0333448201417923 0.1615830808877945 -0.0761079341173172 -0.10142066329717636
-0.15949495136737823 -0.0845596119761467 0.14663450419902802 -0.1178797036409378 0.15378312766551971 0.1579878181219101 0.11692465841770172 0.16987355053424835
-0.19527612626552582 0.021349743008613586 0.11407674849033356 -0.04757848381996155 0.14137233793735504 -0.18006275594234467 0.13155747950077057 -0.11753399670124054
0.0777006596326828 0.004140287637710571 0.0368143767118454 0.1642516702413559 -0.12316121906042099 0.014096647500991821 0.13849498331546783 0.07037506997585297
0.09044741094112396 0.16945578157901764 0.12042157351970673 -0.14106938242912292 0.15216515958309174 0.0401129275560379 -0.1531374156475067 -0.07931321114301682
-0.08737239986658096 0.11880816519260406 -0.0849618911743164 -0.10549330711364746 -0.1831045001745224 0.03352709114551544 0.18939955532550812 0.12206234037876129
0.18694187700748444 0.1813444346189499 -0.08435864746570587 0.08161522448062897 0.17823250591754913 -0.09725368022918701 -0.12540170550346375 -0.05494968593120575
-0.12832923233509064 0.10268481075763702 0.005190566182136536 0.12023629248142242 0.09202589094638824 -0.013892054557800293 0.0729379802942276 0.16235674917697906
-0.021140649914741516 0.16440315544605255 0.021797090768814087 -0.013411641120910645 0.10753245651721954 -0.05785951018333435 0.1926357001066208 0.09310676157474518
-0.02596151828765869 -0.0048628151416778564 -0.1468115597963333 0.18363870680332184 0.02234359085559845 0.16627265512943268 -0.02104201912879944 0.07709522545337677
0.14550526440143585 0.07347546517848969 -0.18346086144447327 0.15085090696811676 0.043903499841690063 0.1991003304719925 0.17877496778964996 0.12974907457828522
0.12226958572864532 -0.061207979917526245 0.09318988025188446 0.09032349288463593 -0.05439122021198273 -0.03936520218849182 0.005994841456413269 0.04030919075012207
-0.04908902943134308 0.08018048107624054 0.08627055585384369 0.06558801233768463 0.0736396461725235 -0.13391491770744324
00000000: 0000 0000 0b30 c9bf 0000 0000 9870 aabf
00000010: 0000 0080 30ab ac3f 0000 0000 26d5 92bf
00000020: 0000 0020 ca2b c23f 0000 0080 750c a53f
00000030: 0000 00a0 9161 c93f 0000 00e0 9cb6 bfbf
00000040: 0000 0040 780d be3f 0000 0020 25d0 c13f
00000050: 0000 0000 b0c1 55bf 0000 0000 3889 78bf
00000060: 0000 0020 1c15 c83f 0000 00e0 b418 c6bf
00000070: 0000 00a0 09df b3bf 0000 0040 c8e9 bd3f
00000080: 0000 0000 e1c1 a63f 0000 0000 ebb2 a73f
00000090: 0000 00c0 dc51 b0bf 0000 0000 8511 93bf
000000a0: 0000 0060 4a32 c43f 0000 0020 21a6 c83f
000000b0: 0000 0040 95e6 c3bf 0000 0020 cabd c73f
000000c0: 0000 0040 5bce ba3f 0000 00c0 9d91 be3f
000000d0: 0000 00c0 6c9e c2bf 0000 0000 745c 86bf
000000e0: 0000 00e0 b1ed c63f 0000 0060 df0d c03f
000000f0: 0000 0060 a839 c83f 0000 0000 8397 acbf
00000100: 0000 0060 e107 c3bf 0000 0000 9d09 c3bf
00000110: 0000 0040 31fc bcbf 0000 0060 d8f1 bcbf
00000120: 0000 00e0 3920 c73f 0000 0000 b485 8e3f
00000130: 0000 0020 76ee c23f 0000 0000 25cf c2bf
00000140: 0000 00e0 2000 b5bf 0000 0000 8523 93bf
00000150: 0000 0080 51f7 ac3f 0000 00a0 5108 c83f
00000160: 0000 0040 0615 bd3f 0000 0000 6aa8 8b3f
00000170: 0000 0040 5a8a b33f 0000 0000 b033 55bf
00000180: 0000 0040 0972 bf3f 0000 00a0 a2ba c7bf
00000190: 0000 00e0 fd67 c73f 0000 0060 3492 c93f
000001a0: 0000 0080 9212 a13f 0000 0020 c1ae c43f
000001b0: 0000 0040 cf7b b3bf 0000 0060 b4f6 b9bf
000001c0: 0000 00a0 546a c4bf 0000 00e0 b2a5 b5bf
000001d0: 0000 0060 ebc4 c23f 0000 0040 5d2d bebf
000001e0: 0000 0060 2aaf c33f 0000 00e0 f138 c43f
000001f0: 0000 0040 c6ee bd3f 0000 00a0 6abe c53f
00000200: 0000 00e0 cefe c8bf 0000 0000 b5dc 953f
00000210: 0000 0040 2234 bd3f 0000 0000 355c a8bf
00000220: 0000 0020 7d18 c23f 0000 00e0 4b0c c7bf
00000230: 0000 0020 e0d6 c03f 0000 0040 b516 bebf
00000240: 0000 00c0 30e4 b33f 0000 0000 68f5 703f
00000250: 0000 0080 55d9 a23f 0000 00e0 3206 c53f
00000260: 0000 0060 7e87 bfbf 0000 0000 b4de 8c3f
00000270: 0000 0020 34ba c13f 0000 00c0 1904 b23f
00000280: 0000 00c0 8f27 b73f 0000 0020 bab0 c53f
00000290: 0000 00c0 f2d3 be3f 0000 00c0 8f0e c2bf
000002a0: 0000 00e0 257a c33f 0000 0080 ae89 a43f
000002b0: 0000 00c0 019a c3bf 0000 00e0 de4d b4bf
000002c0: 0000 00a0 095e b6bf 0000 0040 366a be3f
000002d0: 0000 0000 10c0 b5bf 0000 0000 9c01 bbbf
000002e0: 0000 00e0 f76f c7bf 0000 0080 762a a13f
000002f0: 0000 00a0 3e3e c83f 0000 0040 7a3f bf3f
00000300: 0000 0020 b6ed c73f 0000 0060 4b36 c73f
00000310: 0000 0040 8798 b5bf 0000 0040 bce4 b43f
00000320: 0000 00a0 52d0 c63f 0000 0000 9ee5 b8bf
00000330: 0000 00c0 290d c0bf 0000 0080 5d22 acbf
00000340: 0000 00a0 176d c0bf 0000 0040 8d49 ba3f
00000350: 0000 0000 b442 753f 0000 0040 cec7 be3f
00000360: 0000 0040 028f b73f 0000 0000 7073 8cbf
00000370: 0000 0040 10ac b23f 0000 0020 1bc8 c43f
00000380: 0000 0000 e5a5 95bf 0000 00a0 290b c53f
00000390: 0000 0000 fa51 963f 0000 0000 9077 8bbf
000003a0: 0000 0040 3f87 bb3f 0000 0000 c39f adbf
000003b0: 0000 0060 49a8 c83f 0000 0040 d8d5 b73f
000003c0: 0000 0000 a895 9abf 0000 0000 08eb 73bf
000003d0: 0000 00a0 b8ca c2bf 0000 0020 7981 c73f
000003e0: 0000 0000 3de1 963f 0000 0020 6c48 c53f
000003f0: 0000 0000 0a8c 95bf 0000 0040 83bc b33f
00000400: 0000 00a0 ea9f c23f 0000 00c0 49cf b23f
00000410: 0000 0040 a57b c7bf 0000 0020 154f c33f
00000420: 0000 0000 857a a63f 0000 00a0 1e7c c93f
00000430: 0000 0020 19e2 c63f 0000 0020 9e9b c03f
00000440: 0000 0040 0f4d bf3f 0000 0000 a756 afbf
00000450: 0000 00c0 4adb b73f 0000 00c0 701f b73f
00000460: 0000 0080 2ad9 abbf 0000 0000 ad27 a4bf
00000470: 0000 0000 0c8e 783f 0000 0000 68a3 a43f
00000480: 0000 0080 3222 a9bf 0000 0040 b586 b43f
00000490: 0000 00c0 d315 b63f 0000 0040 60ca b03f
000004a0: 0000 0040 0cda b23f 0000 00c0 1f24 c1bf

feature_extractor.0.bias f8 [6]
0.09028001129627228 0.04225297272205353 -0.07640929520130157 -0.13564565777778625 0.15975035727024078 0.017377346754074097
00000000: 0000 0040 971c b73f 0000 0080 2ea2 a53f
00000010: 0000 0040 8f8f b3bf 0000 0040 d65c c1bf
00000020: 0000 0020 b372 c43f 0000 0000 5ecb 913f

feature_extractor.3.weight f8 [16, 6, 5, 5]
0.0014302954077720642 -0.02219267189502716 0.06191384792327881 -0.010750062763690948 0.007879465818405151 -0.027261260896921158 -0.0752892941236496 -0.016729384660720825
-0.06755043566226959 -0.03495895862579346 0.06405533850193024 0.009007878601551056 -0.03708282485604286 -0.052201878279447556 -0.017908401787281036 0.07849837839603424
0.04918067157268524 -0.08081711828708649 0.02964746206998825 -0.027545399963855743 -0.052242785692214966 0.05347356200218201 0.0800398588180542 -0.06875389814376831
-0.005097664892673492 -0.007007382810115814 0.058103740215301514 -0.04162111133337021 -0.005766823887825012 -0.018320687115192413 -0.02887125313282013 0.01537042111158371
-0.0015561282634735107 0.08055880665779114 0.07145430147647858 0.0008937045931816101 -0.052530936896800995 -0.0033313333988189697 0.0019126906991004944 -0.06295111030340195
-0.06260718405246735 0.06544537842273712 -0.056408047676086426 -0.04617433622479439 0.040617190301418304 -0.05540349334478378 -0.04470107704401016 -0.04173077642917633
0.018544159829616547 -0.07197295129299164 -0.026567913591861725 0.04137440770864487 -0.036082349717617035 0.02697574347257614 0.025822944939136505 0.03027264028787613
-0.07299783080816269 -0.04833454638719559 0.00017458945512771606 0.019012413918972015 -0.0754454955458641 0.004149094223976135 0.0741415023803711 -0.016748063266277313
0.044288262724876404 -0.04437299445271492 0.06358380615711212 0.03461717069149017 -0.049420442432165146 -0.028077077120542526 0.017572693526744843 0.0269535630941391
-0.055823393166065216 0.010138139128684998 0.0815812200307846 0.013104870915412903 -0.009100154042243958 -0.01516590267419815 0.048952341079711914 -0.03625631332397461
0.07073013484477997 0.008514322340488434 0.0036715343594551086 0.03736351430416107 -0.010085225105285645 -0.0792970135807991 -0.057137735188007355 -0.004261583089828491
-0.07756499946117401 -0.03035387396812439 0.00826747715473175 -0.02582426369190216 0.01760037988424301 -0.06863386929035187 -0.04911566153168678 -0.02997637540102005
0.06040714681148529 0.054451435804367065 0.047631338238716125 -0.08074797689914703 0.01782989501953125 -0.05451761931180954 0.03670518100261688 -0.009221985936164856
0.029758550226688385 -0.01890653371810913 -0.06359877437353134 -0.01539658010005951 -0.047049086540937424 0.039324238896369934 0.0660010576248169 -0.025060247629880905
-0.02634422853589058 0.046610474586486816 0.00890234112739563 -0.026584722101688385 -0.03423463925719261 0.051826536655426025 -0.006528809666633606 -0.04415540397167206
0.07394494116306305 -0.02560323476791382 -0.05665995180606842 0.07179850339889526 -0.03322391211986542 0.0047590360045433044 0.04400792717933655 -0.025393422693014145
0.08086059987545013 -0.03436029702425003 0.008515730500221252 0.028669394552707672 -0.07565083354711533 0.045154646039009094 -0.0707809180021286 -0.060523755848407745
0.03875885158777237 -0.029532045125961304 -0.08003301918506622 -0.07984695583581924 -0.00583232194185257 0.0024255141615867615 -0.0145268514752388 0.031890444457530975
-0.0449020154774189 0.025167956948280334 -0.05835338681936264 0.04008076339960098 -0.03333495184779167 -0.018636226654052734 0.041780710220336914 0.02951580286026001
0.011575266718864441 0.02487381547689438 -0.031543150544166565 0.007095031440258026 0.004898525774478912 0.02007962018251419 -0.002721339464187622 -0.003164149820804596
-0.07388202100992203 0.07538636028766632 0.051215946674346924 0.007766418159008026 0.0726110190153122 -0.010665081441402435 -0.051135312765836716 0.0499124675989151
0.03778102248907089 0.06970232725143433 -0.041237711906433105 -0.048272185027599335 -0.008161596953868866 -0.0007178857922554016 -0.06482917070388794 0.049061983823776245
-0.06771931797266006 0.0310271754860878 0.012779228389263153 -0.07411075383424759 0.059649109840393066 -0.054698340594768524 0.06976917386054993 0.0038623064756393433
0.06831088662147522 -0.0352633036673069 0.0811087042093277 -0.029179003089666367 -0.012716688215732574 0.03781581670045853 0.04035627096891403 -0.03719910979270935
-0.06561541557312012 -0.06954150646924973 -0.02871905267238617 -0.06921235471963882 0.028437942266464233 0.008180201053619385 -0.023127887398004532 -0.059144847095012665
0.056140124797821045 0.07268732786178589 0.01853840798139572 0.060100048780441284 0.0471327006816864 -0.05847664922475815 -0.008756063878536224 -0.06984982639551163
0.01947002112865448 -0.025247540324926376 -0.027712296694517136 -0.05232914164662361 0.06022760272026062 0.008885987102985382 0.035838544368743896 -0.061652686446905136
-0.039328400045633316 -0.03325724974274635 0.03784411400556564 -0.07856183499097824 -0.06707414239645004 -0.016234345734119415 0.07771125435829163 -0.06981588900089264
0.0700031965970993 0.037508077919483185 -0.0769624263048172 -0.005000494420528412 -0.0419684462249279 -0.01792043447494507 -0.02820466086268425 -0.053154174238443375
0.007393479347229004 -0.04904578626155853 0.07621130347251892 -0.06250188499689102 0.0704210102558136 -0.04971589893102646 0.05833043158054352 -0.04656413942575455
0.0737709254026413 -0.07034464925527573 0.047582030296325684 0.06979101896286011 -0.06359529495239258 -0.04591301456093788 0.01174744963645935 -0.0704164206981659
-0.012127600610256195 0.00011927634477615356 0.03626387566328049 -0.07055480778217316 -0.015336759388446808 0.03944922983646393 -0.07641361653804779 -0.01464148610830307
00000000: 0000 0000 186f 573f 0000 0000 adb9 96bf
00000010: 0000 0000 2cb3 af3f 0000 0000 2104 86bf
00000020: 0000 0000 1c23 803f 0000 0040 60ea 9bbf
00000030: 0000 00c0 2846 b3bf 0000 0000 8221 91bf
00000040: 0000 0040 fc4a b1bf 0000 0000 24e6 a1bf
00000050: 0000 0040 ee65 b03f 0000 0000 b972 823f
00000060: 0000 0020 85fc a2bf 0000 0060 34ba aabf
00000070: 0000 0080 9456 92bf 0000 0040 7818 b43f
00000080: 0000 0080 352e a93f 0000 0040 6eb0 b4bf
00000090: 0000 0080 e75b 9e3f 0000 0080 dc34 9cbf
000000a0: 0000 0000 91bf aabf 0000 0000 e360 ab3f
000000b0: 0000 0000 7e7d b43f 0000 0000 db99 b1bf
000000c0: 0000 0000 4ae1 74bf 0000 0000 c6b3 7cbf
000000d0: 0000 0000 c6bf ad3f 0000 00c0 5c4f a5bf
000000e0: 0000 0000 f49e 77bf 0000 0080 a8c2 92bf
000000f0: 0000 0000 6d90 9dbf 0000 0000 877a 8f3f
00000100: 0000 0000 e07e 59bf 0000 0080 809f b43f
00000110: 0000 0040 d44a b23f 0000 0000 f048 4d3f
00000120: 0000 00c0 55e5 aabf 0000 0000 504a 6bbf
00000130: 0000 0000 6856 5f3f 0000 0060 901d b0bf
00000140: 0000 0040 0607 b0bf 0000 0040 07c1 b03f
00000150: 0000 0000 84e1 acbf 0000 00a0 29a4 a7bf
00000160: 0000 00c0 c6cb a43f 0000 00c0 d85d acbf
00000170: 0000 0040 0fe3 a6bf 0000 0080 bc5d a5bf
00000180: 0000 0080 3dfd 923f 0000 00c0 d16c b2bf
00000190: 0000 0080 9e34 9bbf 0000 00c0 062f a53f
000001a0: 0000 00c0 6279 a2bf 0000 0080 879f 9b3f
000001b0: 0000 0080 5471 9a3f 0000 0080 caff 9e3f
000001c0: 0000 0060 fcaf b2bf 0000 0040 4ebf a8bf
000001d0: 0000 0000 40e2 263f 0000 0080 fd77 933f
000001e0: 0000 0060 6550 b3bf 0000 0000 a4fe 703f
000001f0: 0000 0000 f0fa b23f 0000 0080 6726 91bf
00000200: 0000 0080 f3ac a63f 0000 00a0 0eb8 a6bf
00000210: 0000 0040 0747 b03f 0000 0080 57b9 a13f
00000220: 0000 00e0 a24d a9bf 0000 00c0 3cc0 9cbf
00000230: 0000 0080 93fe 913f 0000 0000 b799 9b3f
00000240: 0000 0040 e294 acbf 0000 0000 4ec3 843f
00000250: 0000 00c0 81e2 b43f 0000 0000 bad6 8a3f
00000260: 0000 0000 1aa3 82bf 0000 0000 4d0f 8fbf
00000270: 0000 0000 4810 a93f 0000 0000 3090 a2bf
00000280: 0000 00c0 5e1b b23f 0000 0000 f56f 813f
00000290: 0000 0000 c413 6e3f 0000 0080 4f21 a33f
000002a0: 0000 0000 90a7 84bf 0000 0020 cf4c b4bf
000002b0: 0000 0040 2841 adbf 0000 0000 9874 71bf
000002c0: 0000 00c0 4cdb b3bf 0000 0000 1615 9fbf
000002d0: 0000 0000 8aee 803f 0000 0000 ad71 9abf
000002e0: 0000 0080 d505 923f 0000 0040 fd91 b1bf
000002f0: 0000 0020 b025 a9bf 0000 0080 20b2 9ebf
00000300: 0000 0080 afed ae3f 0000 0000 0fe1 ab3f
00000310: 0000 0080 2263 a83f 0000 0040 e6ab b4bf
00000320: 0000 0000 0042 923f 0000 00c0 bbe9 abbf
00000330: 0000 0080 05cb a23f 0000 0000 fae2 82bf
00000340: 0000 0080 0679 9e3f 0000 0000 3c5c 93bf
00000350: 0000 0060 0248 b0bf 0000 0000 3e88 8fbf
00000360: 0000 0060 d116 a8bf 0000 0080 4e22 a43f
00000370: 0000 0000 72e5 b03f 0000 00c0 64a9 99bf
00000380: 0000 0040 fbf9 9abf 0000 0000 54dd a73f
00000390: 0000 0000 643b 823f 0000 0080 0639 9bbf
000003a0: 0000 00e0 3387 a1bf 0000 0000 0289 aa3f
000003b0: 0000 0000 f4bd 7abf 0000 0080 899b a6bf
000003c0: 0000 0040 0eee b23f 0000 0000 bc37 9abf
000003d0: 0000 0080 8802 adbf 0000 0000 6361 b23f
000003e0: 0000 0080 b902 a1bf 0000 0000 367e 733f
000003f0: 0000 0000 3588 a63f 0000 00c0 bb00 9abf
00000400: 0000 00c0 47b3 b43f 0000 0040 ac97 a1bf
00000410: 0000 0000 b270 813f 0000 0080 825b 9d3f
00000420: 0000 0060 da5d b3bf 0000 0080 821e a73f
00000430: 0000 00c0 b21e b2bf 0000 0040 f8fc aebf
00000440: 0000 0040 33d8 a33f 0000 0000 a63d 9ebf
00000450: 0000 0040 0b7d b4bf 0000 00a0 d970 b4bf
00000460: 0000 0000 a2e3 77bf 0000 0000 acde 633f
00000470: 0000 0000 41c0 8dbf 0000 00c0 f153 a03f
00000480: 0000 00a0 65fd a6bf 0000 0000 a1c5 993f
00000490: 0000 00c0 7ee0 adbf 0000 0040 7785 a43f
000004a0: 0000 0060 4711 a1bf 0000 0000 6015 93bf
000004b0: 0000 0000 4864 a53f 0000 0000 6439 9e3f
000004c0: 0000 0000 c6b4 873f 0000 0080 8578 993f
000004d0: 0000 0080 6c26 a0bf 0000 0000 ae0f 7d3f
000004e0: 0000 0000 7a10 743f 0000 0080 c08f 943f
000004f0: 0000 0000 104b 66bf 0000 0000 b4eb 69bf
00000500: 0000 00a0 eee9 b2bf 0000 0040 854c b33f
00000510: 0000 0000 fa38 aa3f 0000 0000 aecf 7f3f
00000520: 0000 00c0 a296 b23f 0000 0000 93d7 85bf
00000530: 0000 0060 682e aabf 0000 0080 208e a93f
00000540: 0000 00c0 0858 a33f 0000 0000 03d8 b13f
00000550: 0000 0000 1c1d a5bf 0000 00c0 21b7 a8bf
00000560: 0000 0000 07b7 80bf 0000 0000 1086 47bf
00000570: 0000 0000 a598 b0bf 0000 0000 a71e a93f
00000580: 0000 00a0 0d56 b1bf 0000 0080 96c5 9f3f
00000590: 0000 0000 ff2b 8a3f 0000 0020 ecf8 b2bf
000005a0: 0000 0000 548a ae3f 0000 00c0 6b01 acbf
000005b0: 0000 0080 64dc b13f 0000 0000 d8a3 6f3f
000005c0: 0000 0080 d27c b13f 0000 0020 080e a2bf
000005d0: 0000 0040 8ac3 b43f 0000 00c0 19e1 9dbf
000005e0: 0000 0000 350b 8abf 0000 0040 985c a33f
000005f0: 0000 00c0 93a9 a43f 0000 0000 c30b a3bf
00000600: 0000 0000 2ccc b0bf 0000 00e0 78cd b1bf
00000610: 0000 0000 8768 9dbf 0000 00a0 e6b7 b1bf
00000620: 0000 0000 d61e 9d3f 0000 0000 c8c0 803f
00000630: 0000 0040 d6ae 97bf 0000 00c0 3b48 aebf
00000640: 0000 0000 66be ac3f 0000 0000 a39b b23f
00000650: 0000 0080 bbfb 923f 0000 0000 6fc5 ae3f
00000660: 0000 0000 c721 a83f 0000 00c0 a6f0 adbf
00000670: 0000 0000 b3ee 81bf 0000 00a0 ade1 b1bf
00000680: 0000 0000 f3ef 933f 0000 00c0 7dda 99bf
00000690: 0000 00c0 9c60 9cbf 0000 00a0 e2ca aabf
000006a0: 0000 0000 27d6 ae3f 0000 0000 d132 823f
000006b0: 0000 0000 6e59 a23f 0000 00e0 f090 afbf
000006c0: 0000 0020 da22 a4bf 0000 0020 1807 a1bf
000006d0: 0000 00c0 4d60 a33f 0000 00e0 a01c b4bf
000006e0: 0000 0060 c52b b1bf 0000 0080 bc9f 90bf
000006f0: 0000 0080 e2e4 b33f 0000 0040 74df b1bf
00000700: 0000 00c0 baeb b13f 0000 0040 4234 a33f
00000710: 0000 0040 cfb3 b3bf 0000 0000 667b 74bf
00000720: 0000 0060 e37c a5bf 0000 0000 bc59 92bf
00000730: 0000 00c0 aee1 9cbf 0000 0020 0637 abbf
00000740: 0000 0000 a048 7e3f 0000 0080 871c a9bf
00000750: 0000 0080 9582 b33f 0000 00a0 1f00 b0bf
00000760: 0000 0080 1c07 b23f 0000 00c0 5c74 a9bf
00000770: 0000 0080 7cdd ad3f 0000 0040 41d7 a7bf
00000780: 0000 00c0 a6e2 b23f 0000 0060 1b02 b2bf
00000790: 0000 0000 ac5c a83f 0000 0000 d3dd b13f
000007a0: 0000 0000 c847 b0bf 0000 0020 e981 a7bf
000007b0: 0000 0000 0c0f 883f 0000 0080 cf06 b2bf
000007c0: 0000 0000 5bd6 88bf 0000 0000 8044 1f3f
000007d0: 0000 00c0 2d91 a23f 0000 0040 e10f b2bf
000007e0: 0000 0000 e168 8fbf 0000 0080 b032 a43f
000007f0: 0000 00c0 d78f b3bf 0000 0000 5bfc 8dbf

feature_extractor.3.bias f8 [16]
0.02398470789194107 0.013939537107944489 0.01112334430217743 -0.009619131684303284 0.042489416897296906 0.06422153115272522 -0.026341818273067474 -0.05072415620088577
-0.015000574290752411 -0.012862138450145721 0.04586362838745117 -0.017154410481452942 -0.014911815524101257 0.06528419256210327 -0.06596218049526215 -0.06657939404249191
00000000: 0000 0080 728f 983f 0000 0000 558c 8c3f
00000010: 0000 0000 d6c7 863f 0000 0000 32b3 83bf
00000020: 0000 0040 2cc1 a53f 0000 0080 d270 b03f
00000030: 0000 0080 59f9 9abf 0000 0040 84f8 a9bf
00000040: 0000 0000 9fb8 8ebf 0000 0000 7757 8abf
00000050: 0000 0000 707b a73f 0000 0000 ed90 91bf
00000060: 0000 0000 168a 8ebf 0000 0000 77b6 b03f
00000070: 0000 00c0 e5e2 b0bf 0000 00e0 580b b1bf

feature_extractor.6.weight f8 [120, 16, 5, 5]
0.003253072500228882 -0.030237138271331787 0.03077394887804985 -0.020873164758086205 -0.003804422914981842 -0.03275545313954353 0.024031255394220352 0.029959987848997116
0.04386501386761665 -0.027904851362109184 0.03937416151165962 -0.028138214722275734 -0.01910792663693428 0.009339243173599243 -0.037024665623903275 0.04905444756150246
0.006320934742689133 0.010920446366071701 0.033173125237226486 -0.032985854893922806 0.03170664235949516 0.030267756432294846 -0.04878848418593407 0.018549855798482895
0.009921133518218994 0.019494373351335526 -0.01193045824766159 0.030066106468439102 0.0057451725006103516 0.02782011404633522 -0.012691974639892578 -0.027952158823609352
-0.04146713763475418 -0.013502724468708038 0.008957337588071823 0.03988262638449669 -0.023637933656573296 -0.02484878897666931 -0.035431694239377975 -0.011570058763027191
0.018799815326929092 -0.020277952775359154 -0.035135138779878616 0.03055581822991371 0.044746387749910355 0.03728071227669716 -0.007025532424449921 0.04681484028697014
0.032593730837106705 -0.04825099930167198 0.035985466092824936 -0.041971854865550995 -0.021687716245651245 0.015457887202501297 -0.019038522616028786 -0.02820146642625332
-0.023505492135882378 -0.00022277981042861938 0.04419119283556938 0.033779215067625046 -0.017198700457811356 0.017403166741132736 -0.014091193675994873 0.032568950206041336
0.00994258001446724 0.04437286779284477 0.013794522732496262 0.010096073150634766 -0.0100322887301445 -0.037561774253845215 -0.015542589128017426 0.03935977444052696
0.01361289992928505 -0.006288547068834305 0.02801646664738655 -0.04506577178835869 0.012014232575893402 0.02182896062731743 0.019260231405496597 0.008122287690639496
-0.02416527271270752 -0.023090464994311333 -0.02128557674586773 -0.012280832976102829 -0.030664116144180298 0.017831359058618546 0.02682182565331459 -0.002182740718126297
0.04389030113816261 -0.003389023244380951 -0.03957204148173332 0.010579157620668411 -0.02565917931497097 0.0499623604118824 0.04181985184550285 -0.0032178759574890137
0.0445941723883152 -0.027043713256716728 -0.015981189906597137 0.009486444294452667 -0.0017716772854328156 -0.03486277908086777 0.03638792410492897 -0.0069064125418663025
-0.03239645063877106 0.029460731893777847 0.006610602140426636 0.003915764391422272 0.028517957776784897 -0.03353950381278992 -0.01036805659532547 -0.02089180424809456
0.018351566046476364 0.005952648818492889 -0.04823306202888489 -0.04265652224421501 0.041905079036951065 0.02400657907128334 -0.013746727257966995 0.0029139444231987
-0.0029314160346984863 0.0410732664167881 -0.03769310563802719 0.004802387207746506 -0.03218169882893562 0.033677343279123306 0.0008217915892601013 0.037071358412504196
0.0037165097892284393 -0.03451474383473396 -0.001139868050813675 0.014314066618680954 0.019738640636205673 -0.032009147107601166 -0.049883659929037094 -0.017055056989192963
-0.001377195119857788 -0.003959260880947113 0.0006849095225334167 0.01021953672170639 0.03601532056927681 -0.003659438341856003 -0.04392371326684952 0.007798485457897186
-0.04655385762453079 0.02580465003848076 0.02309972420334816 -0.0019685402512550354 0.010034918785095215 0.042274150997400284 0.018143508583307266 -0.011720102280378342
0.024407800287008286 0.038254592567682266 -0.019800567999482155 0.02667597308754921 0.03938750550150871 -0.037292372435331345 0.03439824655652046 0.04137894883751869
-0.005579225718975067 -0.039985738694667816 -0.048490699380636215 -0.0014958865940570831 0.024057481437921524 2.5428831577301025e-05 -0.007826752960681915 -0.02380325272679329
-0.0337718203663826 -0.0483710952103138 -0.005681999027729034 -0.011455047875642776 -0.020218634977936745 0.04511584714055061 0.010420341044664383 -0.02732960693538189
-0.019158799201250076 0.013713683933019638 0.01879395917057991 0.033029887825250626 -0.03224855661392212 -0.0331975594162941 0.011998545378446579 0.0017551854252815247
0.003235887736082077 -0.026595836505293846 0.020287420600652695 -0.03966004401445389 0.027043435722589493 -0.007889807224273682 -0.030884116888046265 0.002377122640609741
0.018294889479875565 -0.03016938641667366 0.025712255388498306 -0.022743677720427513 -0.002937931567430496 0.008975047618150711 -0.03568866103887558 -0.016446959227323532
0.00798790529370308 0.007299620658159256 0.004114650189876556 -0.027696270495653152 0.04356381669640541 -0.009621672332286835 0.04097643867135048 -0.023105472326278687
0.03558165207505226 -0.0015246197581291199 -0.044437166303396225 0.047721099108457565 0.04604722186923027 -0.002554379403591156 0.00820877030491829 -0.009956736117601395
0.03929535672068596 -0.04959440976381302 -0.006161607801914215 0.04584581032395363 -0.029052836820483208 0.0443686880171299 -0.024515314027667046 0.04536208137869835
-0.021041059866547585 -0.019267266616225243 0.043645646423101425 -0.011737219989299774 -0.03696194291114807 -0.029034798964858055 -0.007760129868984222 0.03557984158396721
-0.008913140743970871 -0.003671657294034958 -0.03523612022399902 -0.00017189979553222656 -0.01614169403910637 0.01679724082350731 -0.01978974975645542 0.01198306679725647
-0.01770942658185959 -0.03943948075175285 0.008639883249998093 -0.016538560390472412 -0.001469593495130539 -0.041853927075862885 0.018559616059064865 -0.033980488777160645
0.047596272081136703 -0.01066816970705986 0.013077769428491592 0.04282763972878456 0.049300242215394974 -0.044183339923620224 0.038057100027799606 -0.01879069209098816
00000000: 0000 0000 30a6 6a3f 0000 0000 7cf6 9ebf
00000010: 0000 00c0 3483 9f3f 0000 0060 c65f 95bf
00000020: 0000 0000 742a 6fbf 0000 00a0 52c5 a0bf
00000030: 0000 0040 a69b 983f 0000 00c0 d4ad 9e3f
00000040: 0000 00a0 7975 a63f 0000 00e0 1693 9cbf
00000050: 0000 00a0 d928 a43f 0000 00a0 43d0 9cbf
00000060: 0000 0040 0791 93bf 0000 0000 7420 833f
00000070: 0000 00a0 e5f4 a2bf 0000 0020 aa1d a93f
00000080: 0000 0000 fbe3 793f 0000 0080 755d 863f
00000090: 0000 0060 11fc a03f 0000 00a0 85e3 a0bf
000000a0: 0000 0060 da3b a03f 0000 00c0 82fe 9e3f
000000b0: 0000 00e0 cdfa a8bf 0000 00c0 bbfe 923f
000000c0: 0000 0000 8851 843f 0000 0040 55f6 933f
000000d0: 0000 0000 ff6e 88bf 0000 0040 a6c9 9e3f
000000e0: 0000 0000 4088 773f 0000 0040 e07c 9c3f
000000f0: 0000 0000 40fe 89bf 0000 00a0 7d9f 9cbf
00000100: 0000 0040 2e3b a5bf 0000 0000 51a7 8bbf
00000110: 0000 0080 3958 823f 0000 00e0 7e6b a43f
00000120: 0000 00e0 8a34 98bf 0000 0000 f671 99bf
00000130: 0000 0060 1a24 a2bf 0000 0000 0bb2 87bf
00000140: 0000 0040 4240 933f 0000 0060 bec3 94bf
00000150: 0000 00a0 3bfd a1bf 0000 0040 064a 9f3f
00000160: 0000 00a0 ffe8 a63f 0000 0020 7516 a33f
00000170: 0000 0000 cec6 7cbf 0000 0060 1df8 a73f
00000180: 0000 0020 20b0 a03f 0000 00e0 5ab4 a8bf
00000190: 0000 00e0 af6c a23f 0000 00c0 557d a5bf
000001a0: 0000 0000 4e35 96bf 0000 0080 62a8 8f3f
000001b0: 0000 00a0 d57e 93bf 0000 0060 d8e0 9cbf
000001c0: 0000 00e0 d211 98bf 0000 0000 4033 2dbf
000001d0: 0000 0060 3aa0 a63f 0000 0060 824b a13f
000001e0: 0000 0040 899c 91bf 0000 00c0 22d2 913f
000001f0: 0000 0000 d8db 8cbf 0000 00a0 e0ac a03f
00000200: 0000 0080 c65c 843f 0000 0060 0ab8 a63f
00000210: 0000 0080 4d40 8c3f 0000 0000 40ad 843f
00000220: 0000 0000 cf8b 84bf 0000 0000 4c3b a3bf
00000230: 0000 0000 cbd4 8fbf 0000 00e0 f626 a43f
00000240: 0000 0080 14e1 8b3f 0000 0000 05c2 79bf
00000250: 0000 0040 59b0 9c3f 0000 0060 dc12 a7bf
00000260: 0000 0000 eb9a 883f 0000 00c0 545a 963f
00000270: 0000 0040 f4b8 933f 0000 0000 6ba2 803f
00000280: 0000 0000 c8be 98bf 0000 00e0 06a5 97bf
00000290: 0000 00e0 e2cb 95bf 0000 0080 b126 89bf
000002a0: 0000 0000 6a66 9fbf 0000 0040 6242 923f
000002b0: 0000 0040 2e77 9b3f 0000 0000 8ae1 61bf
000002c0: 0000 0020 ca78 a63f 0000 0000 4cc3 6bbf
000002d0: 0000 0060 c942 a4bf 0000 0080 86aa 853f
000002e0: 0000 0060 6646 9abf 0000 00a0 aa94 a93f
000002f0: 0000 0060 6969 a53f 0000 0000 605c 6abf
00000300: 0000 0020 0cd5 a63f 0000 00e0 58b1 9bbf
00000310: 0000 0080 5f5d 90bf 0000 0000 a16d 833f
00000320: 0000 0000 f406 5dbf 0000 00c0 88d9 a1bf
00000330: 0000 0020 70a1 a23f 0000 0000 e649 7cbf
00000340: 0000 0080 4496 a0bf 0000 0040 f42a 9e3f
00000350: 0000 0000 b813 7b3f 0000 0000 fa09 703f
00000360: 0000 00c0 cf33 9d3f 0000 0000 172c a1bf
00000370: 0000 0000 d93b 85bf 0000 0040 a964 95bf
00000380: 0000 00c0 c0ca 923f 0000 0000 ce61 783f
00000390: 0000 0000 01b2 a8bf 0000 0060 13d7 a5bf
000003a0: 0000 0020 9574 a53f 0000 0040 2e95 983f
000003b0: 0000 0080 3e27 8cbf 0000 0000 fcde 673f
000003c0: 0000 0000 a003 68bf 0000 0020 8e07 a53f
000003d0: 0000 00c0 824c a3bf 0000 0000 abab 733f
000003e0: 0000 00a0 1e7a a0bf 0000 0020 283e a13f
000003f0: 0000 0000 b0ed 4a3f 0000 0060 04fb a23f
00000400: 0000 0000 1672 6e3f 0000 00a0 eaab a1bf
00000410: 0000 0000 f4ac 52bf 0000 0080 b150 8d3f
00000420: 0000 00c0 5d36 943f 0000 00c0 8063 a0bf
00000430: 0000 00e0 598a a9bf 0000 0080 e176 91bf
00000440: 0000 0000 6090 56bf 0000 0000 9637 70bf
00000450: 0000 0000 7071 463f 0000 0000 fbed 843f
00000460: 0000 00a0 9970 a23f 0000 0000 66fa 6dbf
00000470: 0000 0040 2b7d a6bf 0000 0000 4ef1 7f3f
00000480: 0000 0040 e8d5 a7bf 0000 00c0 886c 9a3f
00000490: 0000 0040 74a7 973f 0000 0000 5420 60bf
000004a0: 0000 0000 308d 843f 0000 0020 f5a4 a53f
000004b0: 0000 0040 3694 923f 0000 0080 b500 88bf
000004c0: 0000 00c0 5bfe 983f 0000 0020 1b96 a33f
000004d0: 0000 00a0 9946 94bf 0000 0040 f250 9b3f
000004e0: 0000 0060 992a a43f 0000 0060 fc17 a3bf
000004f0: 0000 00a0 a59c a13f 0000 0020 9f2f a53f
00000500: 0000 0000 3eda 76bf 0000 00c0 0279 a4bf
00000510: 0000 00e0 c5d3 a8bf 0000 0000 3482 58bf
00000520: 0000 0040 86a2 983f 0000 0000 00aa fa3e
00000530: 0000 0000 7907 80bf 0000 0040 e15f 98bf
00000540: 0000 0040 8a4a a1bf 0000 00a0 18c4 a8bf
00000550: 0000 0000 0246 77bf 0000 0080 be75 87bf
00000560: 0000 00a0 31b4 94bf 0000 00a0 6c19 a73f
00000570: 0000 0080 4257 853f 0000 00e0 4afc 9bbf
00000580: 0000 0040 5d9e 93bf 0000 0080 eb15 8c3f
00000590: 0000 0040 b93e 933f 0000 0020 4be9 a03f
000005a0: 0000 0000 e282 a0bf 0000 0040 45ff a0bf
000005b0: 0000 0080 b192 883f 0000 0000 c8c1 5c3f
000005c0: 0000 0000 2682 6a3f 0000 0060 f03b 9bbf
000005d0: 0000 00c0 39c6 943f 0000 0040 524e a4bf
000005e0: 0000 0040 46b1 9b3f 0000 0000 8828 80bf
000005f0: 0000 0000 16a0 9fbf 0000 0000 3079 633f
00000600: 0000 0040 e5bb 923f 0000 0040 b9e4 9ebf
00000610: 0000 0040 5054 9a3f 0000 0060 1e4a 97bf
00000620: 0000 0000 4a11 68bf 0000 0080 8261 823f
00000630: 0000 00c0 c845 a2bf 0000 00c0 78d7 90bf
00000640: 0000 0080 f65b 803f 0000 0000 35e6 7d3f
00000650: 0000 0000 86da 703f 0000 0040 695c 9cbf
00000660: 0000 0020 ff4d a63f 0000 0000 87b4 83bf
00000670: 0000 0020 ddfa a43f 0000 0000 f6a8 97bf
00000680: 0000 0020 c237 a23f 0000 0000 b8fa 58bf
00000690: 0000 00e0 77c0 a6bf 0000 0060 e66e a83f
000006a0: 0000 0060 8093 a73f 0000 0000 ecec 64bf
000006b0: 0000 0080 c2cf 803f 0000 0080 3264 84bf
000006c0: 0000 0060 851e a43f 0000 0040 7064 a9bf
000006d0: 0000 0000 ea3c 79bf 0000 0020 1a79 a73f
000006e0: 0000 00e0 06c0 9dbf 0000 0020 7eb7 a63f
000006f0: 0000 00e0 8a1a 99bf 0000 00e0 b239 a73f
00000700: 0000 00a0 c98b 95bf 0000 0060 ccba 93bf
00000710: 0000 00e0 b858 a63f 0000 0000 af09 88bf
00000720: 0000 0000 adec a2bf 0000 0060 4cbb 9dbf
00000730: 0000 0000 16c9 7fbf 0000 0060 8537 a23f
00000740: 0000 0080 0d41 82bf 0000 0000 0614 6ebf
00000750: 0000 0000 780a a2bf 0000 0000 0088 26bf
00000760: 0000 00c0 7287 90bf 0000 00c0 4b33 913f
00000770: 0000 00a0 c343 94bf 0000 0000 948a 883f
00000780: 0000 0080 6b22 92bf 0000 0060 6931 a4bf
00000790: 0000 0080 c9b1 813f 0000 0000 7cef 90bf
000007a0: 0000 0000 ec13 58bf 0000 00c0 e06d a5bf
000007b0: 0000 00c0 4a01 933f 0000 0000 e465 a1bf
000007c0: 0000 00e0 895e a83f 0000 0080 31d9 85bf
000007d0: 0000 0080 84c8 8a3f 0000 0020 81ed a53f
000007e0: 0000 00a0 e13d a93f 0000 00e0 329f a6bf
000007f0: 0000 0060 387c a33f 0000 0000 de3d 93bf

feature_extractor.6.bias f8 [120]
0.047895435243844986 0.017520185559988022 -0.03145967423915863 -0.04506054148077965 0.03965327516198158 -0.04905904456973076 0.015809576958417892 -0.01684590056538582
-0.03187261521816254 -0.043470170348882675 -0.011798124760389328 0.00839613750576973 0.01930663362145424 -0.006246723234653473 -0.03564111143350601 -0.03473249077796936
0.03499336168169975 -0.012194454669952393 -0.024493325501680374 -0.0014802627265453339 -0.0173066146671772 -0.03104465641081333 0.023589391261339188 0.0362282358109951
-0.02283301390707493 -0.03882380574941635 0.04065883532166481 -0.009687729179859161 0.002365194261074066 -0.041730619966983795 -0.028800083324313164 0.040354643017053604
-0.04488596320152283 0.017515871673822403 0.04845079407095909 0.009853590279817581 -0.046440042555332184 -0.03523179143667221 -0.018546022474765778 0.001626424491405487
0.03013000264763832 -0.04367661476135254 0.01837717369198799 -0.04896245151758194 0.0014466866850852966 0.010176699608564377 -0.03874949365854263 -0.014150012284517288
-0.03784503415226936 0.02990930899977684 0.01075562834739685 -0.04531055688858032 -0.02810005657374859 0.022543709725141525 -0.019125986844301224 -0.03531380370259285
-0.022664636373519897 0.012178152799606323 0.008701063692569733 0.048134077340364456 0.04594815894961357 -0.023044032976031303 -0.03130864351987839 0.0035734400153160095
-0.027725135907530785 0.022064242511987686 -0.02018236555159092 -0.03247997909784317 -0.03607456013560295 -0.038815937936306 -0.0036156289279460907 -0.021485192701220512
0.008775778114795685 -0.001773923635482788 -0.036130309104919434 0.04068441316485405 -0.008907634764909744 -0.009664483368396759 -0.030745869502425194 -0.015042256563901901
0.008336395025253296 -0.0036308541893959045 0.005481857806444168 -0.026098495349287987 0.0068829841911792755 -0.0014060921967029572 -0.015961069613695145 0.013045471161603928
0.03344633802771568 0.046216320246458054 -0.005448717623949051 -0.04770888015627861 0.044876765459775925 -0.036514829844236374 -0.02621116116642952 -0.041763968765735626
0.0025347359478473663 0.047835495322942734 0.020878035575151443 -0.03907395526766777 -0.049147795885801315 0.0035811476409435272 -0.025953037664294243 -0.04194062203168869
-0.04932945594191551 0.028881367295980453 -0.010010253638029099 -0.045571185648441315 0.035475704818964005 0.04400256648659706 -0.023564720526337624 -0.007384099066257477
0.009878210723400116 -0.015607185661792755 -0.007438533008098602 0.040647152811288834 0.022462066262960434 -0.03670891374349594 0.03336390480399132 -0.018298469483852386
00000000: 0000 0020 c085 a83f 0000 00c0 cff0 913f
00000010: 0000 0080 7b1b a0bf 0000 00e0 2c12 a7bf
00000020: 0000 0020 6f4d a43f 0000 0060 441e a9bf
00000030: 0000 00c0 6230 903f 0000 0040 0d40 91bf
00000040: 0000 0080 9b51 a0bf 0000 00e0 b841 a6bf
00000050: 0000 0080 9d29 88bf 0000 0080 fe31 813f
00000060: 0000 0040 1ec5 933f 0000 0000 2a96 79bf
00000070: 0000 0040 8d3f a2bf 0000 0000 75c8 a1bf
00000080: 0000 0060 a6ea a13f 0000 0000 68f9 88bf
00000090: 0000 0040 c714 99bf 0000 0000 ac40 58bf
000000a0: 0000 0040 d3b8 91bf 0000 00a0 2bca 9fbf
000000b0: 0000 0040 d127 983f 0000 00e0 818c a23f
000000c0: 0000 00a0 8961 97bf 0000 00c0 b6e0 a3bf
000000d0: 0000 0020 3cd1 a43f 0000 0000 29d7 83bf
000000e0: 0000 0000 2c60 633f 0000 0040 b75d a5bf
000000f0: 0000 00e0 c47d 9dbf 0000 0020 5da9 a43f
00000100: 0000 0000 4bfb a6bf 0000 0040 aeef 913f
00000110: 0000 00e0 8ace a83f 0000 0080 1e2e 843f
00000120: 0000 0040 fdc6 a7bf 0000 00c0 e609 a2bf
00000130: 0000 0080 bafd 92bf 0000 0000 b8a5 5a3f
00000140: 0000 0040 66da 9e3f 0000 0000 c85c a6bf
00000150: 0000 0040 77d1 923f 0000 0040 9b11 a9bf
00000160: 0000 0000 d8b3 573f 0000 0080 85d7 843f
00000170: 0000 0040 f9d6 a3bf 0000 0080 aefa 8cbf
00000180: 0000 00a0 6c60 a3bf 0000 00c0 8ba0 9e3f
00000190: 0000 0000 0c07 863f 0000 0000 f232 a7bf
000001a0: 0000 00e0 42c6 9cbf 0000 00c0 b215 973f
000001b0: 0000 0040 c395 93bf 0000 00a0 a614 a2bf
000001c0: 0000 0000 6635 97bf 0000 0000 dcf0 883f
000001d0: 0000 0000 ddd1 813f 0000 00a0 07a5 a83f
000001e0: 0000 0060 8486 a73f 0000 00e0 da98 97bf
000001f0: 0000 00c0 af07 a0bf 0000 0000 0c46 6d3f
00000200: 0000 0060 fa63 9cbf 0000 0040 0298 963f
00000210: 0000 00a0 afaa 94bf 0000 0040 37a1 a0bf
00000220: 0000 0060 5d78 a2bf 0000 00c0 aedf a3bf
00000230: 0000 0000 869e 6dbf 0000 00e0 3600 96bf
00000240: 0000 0000 09f9 813f 0000 0000 6010 5dbf
00000250: 0000 0000 ac7f a2bf 0000 0060 96d4 a43f
00000260: 0000 0080 2a3e 82bf 0000 0000 f9ca 83bf
00000270: 0000 0060 d87b 9fbf 0000 0080 79ce 8ebf
00000280: 0000 0000 ac12 813f 0000 0000 74be 6dbf
00000290: 0000 0000 2574 763f 0000 0060 90b9 9abf
000002a0: 0000 0000 5531 7c3f 0000 0000 9409 57bf
000002b0: 0000 0040 1958 90bf 0000 0080 95b7 8a3f
000002c0: 0000 00e0 e01f a13f 0000 0060 aaa9 a73f
000002d0: 0000 0000 6551 76bf 0000 0060 4c6d a8bf
000002e0: 0000 0060 16fa a63f 0000 0060 12b2 a2bf
000002f0: 0000 0040 19d7 9abf 0000 0040 1662 a5bf
00000300: 0000 0000 bac3 643f 0000 00e0 e47d a83f
00000310: 0000 0040 0d61 953f 0000 0060 8001 a4bf
00000320: 0000 0060 e629 a9bf 0000 0000 3656 6d3f
00000330: 0000 00e0 6e93 9abf 0000 00c0 3d79 a5bf
00000340: 0000 00e0 b541 a9bf 0000 00c0 1393 9d3f
00000350: 0000 0080 4180 84bf 0000 0040 1b55 a7bf
00000360: 0000 0020 df29 a23f 0000 0020 8187 a63f
00000370: 0000 00a0 5921 98bf 0000 0000 ca3e 7ebf
00000380: 0000 0000 073b 843f 0000 0000 a9f6 8fbf
00000390: 0000 0000 de77 7ebf 0000 0020 b4cf a43f
000003a0: 0000 00c0 4b00 973f 0000 00c0 82cb a2bf
000003b0: 0000 00e0 1215 a13f 0000 0080 d5bc 92bf

classifier.0.weight f8 [84, 120]
-0.08676062524318695 0.08101209998130798 0.03197280317544937 -0.02143038809299469 0.076780304312706 0.06745964288711548 -0.08969926834106445 0.028079494833946228
0.06768442690372467 -0.08940183371305466 0.02999960631132126 -0.062398649752140045 -0.007021099328994751 -0.041741784662008286 0.050006523728370667 -0.029067542403936386
0.06645332276821136 0.03581595420837402 -0.025017008185386658 0.010771669447422028 -0.03363173082470894 -0.07752204686403275 0.045124322175979614 0.008141353726387024
-0.08679342269897461 -0.03199552744626999 -0.038816653192043304 -0.00060996413230896 0.07337559759616852 0.04098016023635864 0.08083690702915192 -0.09031201899051666
-0.042602114379405975 0.06028278172016144 -0.03044680505990982 0.008619017899036407 0.007561236619949341 0.05969206988811493 -0.08069440722465515 0.08975324034690857
-0.0424237996339798 0.037527263164520264 -0.015998080372810364 -0.06326213479042053 -0.021678678691387177 0.07306374609470367 -0.01386406272649765 0.07537655532360077
0.08039945363998413 0.035833150148391724 -0.01840849220752716 -0.034059785306453705 -0.04951528459787369 0.04503324627876282 0.029825493693351746 0.012523084878921509
0.05847248435020447 0.07425355911254883 -0.03711525350809097 0.08718809485435486 -0.034164417535066605 0.05832262337207794 -0.03622930496931076 0.018704965710639954
0.06887203454971313 -0.05867639183998108 -0.06541787832975388 0.04358433187007904 -0.07303997874259949 0.04234573245048523 0.03379090130329132 -0.03425370529294014
-0.04657328501343727 0.08107423782348633 0.010564573109149933 0.08515504002571106 -0.030681829899549484 0.03369615226984024 -0.049432143568992615 -0.01465684175491333
0.07619628310203552 -0.05917529761791229 -0.09049442410469055 0.03940829634666443 -0.0825875774025917 -0.053670719265937805 -0.07756415009498596 0.05695334076881409
-0.03381372615695 0.08101403713226318 0.07529497146606445 0.07643164694309235 -0.008060693740844727 0.06930096447467804 0.025863267481327057 -0.0096091628074646
-0.07471340894699097 0.010187804698944092 0.013735629618167877 -0.06314612179994583 -0.051401592791080475 0.07556433975696564 0.06682884693145752 0.06166158616542816
-0.07997823506593704 -0.010725006461143494 -0.03849908709526062 -0.047184813767671585 0.05289320647716522 -0.01468583196401596 -0.07980145514011383 0.0011545196175575256
0.05223265290260315 -0.03176064416766167 -0.055349625647068024 -0.01365683227777481 0.015381783246994019 0.025939762592315674 -0.01961647719144821 -0.05212440341711044
0.0664546936750412 -0.08383320271968842 0.06899182498455048 0.01080922782421112 0.02452482283115387 -0.06165191903710365 -0.02002592384815216 0.06982292234897614
0.08913557231426239 0.06200708448886871 0.0432913601398468 -0.033565815538167953 -0.05926808342337608 0.06348758935928345 0.05168105661869049 -0.04448350518941879
0.060198694467544556 -0.015240229666233063 -0.08860453963279724 -0.08794236183166504 -0.08181788772344589 -0.08047077804803848 0.055387288331985474 0.05814921855926514
-0.04705657437443733 0.038955315947532654 -0.037333931773900986 -0.08858538419008255 0.06422983109951019 0.018142789602279663 -0.002258092164993286 0.04614493250846863
-0.09055336564779282 -0.03655857965350151 0.04892294108867645 -0.06316356360912323 0.04526853561401367 -0.010068267583847046 0.022807449102401733 0.020753681659698486
-0.05674092471599579 0.08539672195911407 0.06978921592235565 0.06785525381565094 -0.0544523186981678 0.07753236591815948 0.06949745118618011 0.0414804071187973
0.012731701135635376 -0.052739981561899185 -0.05595624819397926 1.9155442714691162e-05 0.08353063464164734 0.06592941284179688 0.017913497984409332 0.036933958530426025
-0.008804112672805786 0.01943212002515793 0.07626749575138092 -0.03668026626110077 -0.08005940914154053 -0.05909568443894386 -0.06224885582923889 -0.03348173946142197
-0.03206085041165352 -0.08259213715791702 -0.042176563292741776 0.0722857415676117 0.0031213611364364624 0.053284093737602234 -0.0006852149963378906 -0.0768018364906311
0.026606246829032898 -0.06365928053855896 0.01574757695198059 0.013787701725959778 0.02181914448738098 -0.005016647279262543 -0.016764111816883087 -0.032259780913591385
-0.0077529773116111755 -0.06561284512281418 0.0283125638961792 -0.06407627463340759 0.0829416960477829 0.03584679961204529 -0.08617516607046127 -0.013344675302505493
0.05870771408081055 0.03689160943031311 -0.06902790069580078 -0.0660872682929039 -0.0336550734937191 0.03139198571443558 0.0359332412481308 0.04724951088428497
-0.061514630913734436 0.01373184472322464 0.07929287850856781 0.04810786247253418 0.04452034831047058 -0.051001179963350296 0.02410034090280533 -0.0218207985162735
0.025328420102596283 0.05218261480331421 -0.0678112730383873 0.02553168684244156 -0.053961921483278275 0.021389253437519073 -0.08228656649589539 -0.04845989868044853
-0.08268064260482788 0.02231971174478531 -0.07688187062740326 -0.05110252648591995 0.08156302571296692 -0.028620176017284393 -0.025845371186733246 0.061952680349349976
0.06855915486812592 0.01664578914642334 0.04161101579666138 -0.00828389823436737 -0.029881112277507782 0.030620336532592773 -0.02890169620513916 0.028063520789146423
-0.07776233553886414 -0.03284592181444168 -0.017910756170749664 0.08396013081073761 -0.016437344253063202 -0.05211653560400009 0.016752324998378754 0.07217909395694733
00000000: 0000 00c0 f135 b6bf 0000 0080 35bd b43f
00000010: 0000 0040 bd5e a03f 0000 0000 d9f1 95bf
00000020: 0000 00c0 dfa7 b33f 0000 0000 0945 b13f
00000030: 0000 0000 88f6 b6bf 0000 0000 dfc0 9c3f
00000040: 0000 0040 c453 b13f 0000 00e0 09e3 b6bf
00000050: 0000 0080 37b8 9e3f 0000 0040 b7f2 afbf
00000060: 0000 0000 28c2 7cbf 0000 00e0 2d5f a5bf
00000070: 0000 0080 749a a93f 0000 00c0 e1c3 9dbf
00000080: 0000 00c0 1503 b13f 0000 0000 7856 a23f
00000090: 0000 0000 0f9e 99bf 0000 0000 750f 863f
000000a0: 0000 00a0 2d38 a1bf 0000 0020 7cd8 b3bf
000000b0: 0000 0000 891a a73f 0000 0000 6aac 803f
000000c0: 0000 0000 1838 b6bf 0000 00c0 b761 a0bf
000000d0: 0000 00c0 c6df a3bf 0000 0000 c0fc 43bf
000000e0: 0000 0040 bec8 b23f 0000 0000 5afb a43f
000000f0: 0000 0040 bab1 b43f 0000 0040 b01e b7bf
00000100: 0000 00c0 f1cf a5bf 0000 0080 62dd ae3f
00000110: 0000 0080 722d 9fbf 0000 0000 d9a6 813f
00000120: 0000 0000 88f8 7e3f 0000 0080 f58f ae3f
00000130: 0000 0080 63a8 b4bf 0000 0080 11fa b63f
00000140: 0000 0080 92b8 a5bf 0000 0000 c636 a33f
00000150: 0000 0000 cd61 90bf 0000 0080 f231 b0bf
00000160: 0000 0080 ef32 96bf 0000 0040 4eb4 b23f
00000170: 0000 0000 c364 8cbf 0000 00c0 e04b b33f
00000180: 0000 0000 0f95 b43f 0000 0000 b958 a23f
00000190: 0000 0000 add9 92bf 0000 00c0 4870 a1bf
000001a0: 0000 0040 115a a9bf 0000 0000 990e a73f
000001b0: 0000 0000 938a 9e3f 0000 0000 b4a5 893f
000001c0: 0000 0000 1bf0 ad3f 0000 0000 4802 b33f
000001d0: 0000 0040 c500 a3bf 0000 0080 f551 b63f
000001e0: 0000 00a0 ff7d a1bf 0000 0080 76dc ad3f
000001f0: 0000 00c0 a58c a2bf 0000 0000 6527 933f
00000200: 0000 0000 99a1 b13f 0000 0000 d50a aebf
00000210: 0000 00e0 39bf b0bf 0000 0080 af50 a63f
00000220: 0000 0080 bfb2 b2bf 0000 0000 57ae a53f
00000230: 0000 0080 0a4d a13f 0000 00a0 b389 a1bf
00000240: 0000 0020 74d8 a7bf 0000 0000 48c1 b43f
00000250: 0000 0000 e1a2 853f 0000 0080 b8cc b53f
00000260: 0000 00c0 0e6b 9fbf 0000 0040 9f40 a13f
00000270: 0000 0080 2b4f a9bf 0000 0000 6804 8ebf
00000280: 0000 0080 9981 b33f 0000 0080 394c aebf
00000290: 0000 0080 a42a b7bf 0000 0000 532d a43f
000002a0: 0000 00a0 7524 b5bf 0000 0080 ba7a abbf
000002b0: 0000 0080 3edb b3bf 0000 0000 fd28 ad3f
000002c0: 0000 0060 0850 a1bf 0000 0000 56bd b43f
000002d0: 0000 0000 8846 b33f 0000 0040 0691 b33f
000002e0: 0000 0000 2082 80bf 0000 0040 b5bd b13f
000002f0: 0000 0080 e67b 9a3f 0000 0000 f8ad 83bf
00000300: 0000 0000 6b20 b3bf 0000 0000 58dd 843f
00000310: 0000 0000 6d21 8c3f 0000 0020 582a b0bf
00000320: 0000 0040 4f51 aabf 0000 0040 2f58 b33f
00000330: 0000 0000 b21b b13f 0000 0080 1b92 af3f
00000340: 0000 0020 7479 b4bf 0000 0000 fef6 85bf
00000350: 0000 0000 27b6 a3bf 0000 00a0 9b28 a8bf
00000360: 0000 0080 d114 ab3f 0000 0000 9b13 8ebf
00000370: 0000 0040 de6d b4bf 0000 0000 68ea 523f
00000380: 0000 0000 3dbe aa3f 0000 0060 ee42 a0bf
00000390: 0000 0040 c956 acbf 0000 0000 1df8 8bbf
000003a0: 0000 0000 7c80 8f3f 0000 0000 f48f 9a3f
000003b0: 0000 0080 5716 94bf 0000 00c0 0cb0 aabf
000003c0: 0000 00c0 2c03 b13f 0000 00c0 1776 b5bf
000003d0: 0000 00c0 72a9 b13f 0000 0000 2623 863f
000003e0: 0000 0000 091d 993f 0000 0020 d790 afbf
000003f0: 0000 0000 ad81 94bf 0000 0040 eadf b13f
00000400: 0000 00c0 96d1 b63f 0000 0080 64bf af3f
00000410: 0000 0000 492a a63f 0000 00e0 892f a1bf
00000420: 0000 00e0 6258 aebf 0000 0000 b940 b03f
00000430: 0000 0080 f075 aa3f 0000 00c0 8ac6 a6bf
00000440: 0000 0000 5dd2 ae3f 0000 0000 4536 8fbf
00000450: 0000 0080 c9ae b6bf 0000 0000 6483 b6bf
00000460: 0000 0060 04f2 b4bf 0000 00a0 bb99 b4bf
00000470: 0000 0000 b95b ac3f 0000 0000 bcc5 ad3f
00000480: 0000 00a0 cc17 a8bf 0000 0080 f3f1 a33f
00000490: 0000 00e0 6e1d a3bf 0000 0020 88ad b6bf
000004a0: 0000 00c0 5d71 b03f 0000 0000 0694 923f
000004b0: 0000 0000 907f 62bf 0000 0000 4fa0 a73f
000004c0: 0000 0060 812e b7bf 0000 0060 ceb7 a2bf
000004d0: 0000 0080 6d0c a93f 0000 00c0 7c2b b0bf
000004e0: 0000 0000 702d a73f 0000 0000 ac9e 84bf
000004f0: 0000 0000 d65a 973f 0000 0000 7440 953f
00000500: 0000 0080 250d adbf 0000 0040 8fdc b53f
00000510: 0000 00c0 b4dd b13f 0000 0040 f65e b13f
00000520: 0000 00a0 2ce1 abbf 0000 0040 29d9 b33f
00000530: 0000 00c0 95ca b13f 0000 0080 eb3c a53f
00000540: 0000 0000 1413 8a3f 0000 0020 bc00 abbf
00000550: 0000 0020 4ca6 acbf 0000 0000 0016 f43e
00000560: 0000 0080 4362 b53f 0000 0000 c0e0 b03f
00000570: 0000 0080 ea57 923f 0000 0000 02e9 a23f
00000580: 0000 0000 e407 82bf 0000 0080 03e6 933f
00000590: 0000 0040 4486 b33f 0000 0080 c1c7 a2bf
000005a0: 0000 0000 c67e b4bf 0000 0020 ca41 aebf
000005b0: 0000 0000 15df afbf 0000 00c0 8424 a1bf
000005c0: 0000 00a0 476a a0bf 0000 0020 c224 b5bf
000005d0: 0000 00a0 2a98 a5bf 0000 0080 5181 b23f
000005e0: 0000 0000 f891 693f 0000 0080 0d48 ab3f
000005f0: 0000 0000 0074 46bf 0000 0000 49a9 b3bf
00000600: 0000 0000 ab3e 9b3f 0000 0080 f94b b0bf
00000610: 0000 0000 2220 903f 0000 0000 ba3c 8c3f
00000620: 0000 0000 c257 963f 0000 0000 568c 74bf
00000630: 0000 0080 9c2a 91bf 0000 00a0 5a84 a0bf
00000640: 0000 0000 96c1 7fbf 0000 00e0 00cc b0bf
00000650: 0000 0000 f8fd 9c3f 0000 0080 4d67 b0bf
00000660: 0000 00c0 aa3b b53f 0000 0000 835a a23f
00000670: 0000 0060 930f b6bf 0000 0000 7454 8bbf
00000680: 0000 0000 f00e ae3f 0000 0000 75e3 a23f
00000690: 0000 0000 d0ab b1bf 0000 0060 18eb b0bf
000006a0: 0000 00e0 3c3b a1bf 0000 0040 9c12 a03f
000006b0: 0000 0080 d765 a23f 0000 0080 1631 a83f
000006c0: 0000 0080 d87e afbf 0000 0000 711f 8c3f
000006d0: 0000 00c0 894c b43f 0000 0000 98a1 a83f
000006e0: 0000 0000 5fcb a63f 0000 00a0 d31c aabf
000006f0: 0000 0080 c2ad 983f 0000 0000 3158 96bf
00000700: 0000 0080 b1ef 993f 0000 0000 aeb7 aa3f
00000710: 0000 0060 145c b1bf 0000 0080 fa24 9a3f
00000720: 0000 00a0 e5a0 abbf 0000 0080 10e7 953f
00000730: 0000 0080 bb10 b5bf 0000 0060 bccf a8bf
00000740: 0000 0000 8f2a b5bf 0000 0080 fada 963f
00000750: 0000 00c0 87ae b3bf 0000 0040 1c2a aabf
00000760: 0000 0080 50e1 b43f 0000 0080 9b4e 9dbf
00000770: 0000 0080 3577 9abf 0000 0000 43b8 af3f
00000780: 0000 00c0 178d b13f 0000 0000 980b 913f
00000790: 0000 0000 0a4e a53f 0000 0000 26f7 80bf
000007a0: 0000 0080 2799 9ebf 0000 0000 f05a 9f3f
000007b0: 0000 0000 6898 9dbf 0000 0000 afbc 9c3f
000007c0: 0000 0080 3be8 b3bf 0000 0040 2ed1 a0bf
000007d0: 0000 0080 3257 92bf 0000 0040 697e b53f
000007e0: 0000 0080 f3d4 90bf 0000 00c0 04af aabf
000007f0: 0000 0080 8527 913f 0000 0040 547a b23f
