medium_post_results/third_experiment/large_population_.pt (torch, 496839 bytes, 10 tensors)

feature_extractor.0.weight f8 [6, 1, 5, 5]
000000 e3 04 e6 33 af 51 03 40 db 8b 91 d5 35 47 e7 bf
       2.414884953934789 -0.7274426623592903
000010 f2 8a b3 e8 9d c3 f0 3f d8 5c 65 ab 18 73 fb bf
       1.047758015622716 -1.7155996985582558
000020 ae 29 6b d2 9b 6e ea bf 2b 25 76 52 8e 7a ff 3f
       -0.8260020360697149 1.967420885195973
000030 e0 4c 5d 07 31 4b e3 3f 0f d3 8a a4 d2 d5 ce 3f
       0.602928652175617 0.24090035471240198
000040 6b 43 17 c7 24 ae fb 3f e4 34 b2 4b 71 3b e9 3f
       1.7300155426966863 0.7885061720313868
000050 22 5d 8e 73 4b 07 0f 40 f7 ba 50 88 f8 6b e7 3f
       3.8785618808575615 0.7319300329598651
000060 25 3f 7e f8 de 0a 02 40 2a 6e ca e3 dc b3 0b 40
       2.2553080953147338 3.462823657622512
000070 75 88 74 16 4a df 0f 40 72 b4 65 df 62 c7 09 40
       3.984028029853159 3.22235655335549
000080 a4 d5 1f 5e 2c 04 04 c0 cb 6d b4 b8 5e 11 f3 bf
       -2.5020377496209267 -1.1917407240897429
000090 b9 ff 40 15 5f 1e eb bf 41 53 b5 40 90 a8 00 c0
       -0.8474574484935068 -2.0823063903175414
0000a0 2a 7a 74 29 e7 13 ff bf 36 f1 78 40 bf 5c d7 bf
       -1.9423591250739585 -0.36503583236823844
0000b0 0a c6 22 3a 1d 1e f2 3f a3 48 b4 2c 3f b1 cb 3f
       1.1323520918780354 0.21634664233039755
0000c0 ab f9 91 ec a4 c3 bf 3f 54 04 2f b0 34 73 d4 bf
       0.1240790441097263 -0.3195316048186829
0000d0 30 12 cd 6e 5b 32 db bf dc 25 e9 3f 99 0f c5 3f
       -0.42494855709472557 0.1645385324539309
0000e0 56 e9 59 31 3a 22 e5 3f 59 f2 94 5b 1e a2 f2 bf
       0.6604281391039801 -1.1645797326483687
0000f0 1f 48 b6 dc 58 44 00 40 b6 39 47 d6 3f 8f 0a c0
       2.033372616112515 -3.319945978211048
000100 40 7b 7f 22 13 aa f7 3f 6a d4 d2 94 66 65 c6 bf
       1.479022154576981 -0.17496950403952677
000110 37 05 06 6c 5e 53 f2 bf 67 91 81 25 81 70 01 c0
       -1.1453537196797023 -2.1799338274160394
000120 b6 44 73 c2 fd 17 ff 3f 29 ac aa f1 57 45 d5 3f
       1.9433572383607447 0.33235739326727526
000130 c5 8c cf 74 71 c2 b6 3f be 64 75 66 9d 59 d6 bf
       0.0889044676001048 -0.3492196560451467
000140 fc 7a d7 ab 0c be e1 bf 45 37 c2 fd 5f a5 e9 3f
       -0.5544494015010453 0.8014373737548587
000150 ae 81 bb 37 24 d6 f7 bf 50 4d af 8f 9f 29 8b bf
       -1.4897806336449366 -0.013262983868037509
000160 e8 91 6c 12 aa c5 85 bf 83 81 f4 84 41 f8 da 3f
       -0.010630921065577462 0.42140233978172875
000170 64 ac c7 36 8a 93 a3 bf 3a f9 69 dd 22 af d3 bf
       -0.03823501509381158 -0.30756446478325794
000180 be b0 e5 40 d2 77 db bf c7 8d 4f ee 46 bc fc 3f
       -0.4291883119356149 1.7959660824788999
000190 f1 dd 6f f6 fb 16 f7 bf b3 87 8d 74 37 42 02 40
       -1.44311138405271 2.2823323350612212
0001a0 a0 e8 13 d4 f4 fe d4 3f 64 d0 22 06 a6 62 c2 bf
       0.328061301333614 -0.1436355142556095
0001b0 82 e8 59 7a d4 5d f4 bf 65 b7 41 a2 13 5b fb bf
       -1.2729077128738315 -1.7097355211403393
0001c0 8d d0 0d 9a 7a d7 05 40 82 d7 d4 9d 9e 76 ab 3f
       2.7302143130746743 0.05363937069561954
0001d0 d3 5f e4 c6 a3 57 e0 bf f9 56 e3 97 6e 6a 05 c0
       -0.5106982121096685 -2.6769687525037367
0001e0 06 2a 76 f6 98 d9 db 3f cc 01 15 dd 82 a3 09 c0
       0.4351560980655055 -3.2048394462619623
0001f0 f8 59 cf 70 a5 87 f0 3f 6b a7 7d 21 d8 f5 b6 3f
       1.033116760887081 0.08968878572127685
000200 3d 23 c0 ca 2f 31 0a c0 91 55 6e 23 90 d9 05 c0
       -3.2740169372449643 -2.731231953434595
000210 ce cb dc 0b 6a 5c 06 c0 c7 0a 5b 99 b1 b2 e8 bf
       -2.7951241423374773 -0.7718132014491282
000220 8f 7a 9b 0a f0 18 da bf b1 2f 79 9f e4 8c e9 3f
       -0.4077720740878385 0.7984488596643954
000230 82 8c fb a4 f7 67 02 40 4d e4 1d 10 f9 49 f0 bf
       2.300765313078558 -1.0180597905694129
000240 4b 17 74 18 c1 d6 e1 bf 15 56 57 af c1 cf 0d c0
       -0.5574651219946899 -3.726443643429557
000250 e2 4a dc c0 7d 8f ea 3f fb 81 41 b2 72 36 e3 3f
       0.830016018562983 0.6003964883385032
000260 b8 2f 6a a1 95 28 90 bf 1f 39 36 bd 16 a2 fe bf
       -0.015779817559220283 -1.9145724669538777
000270 aa bb 3f 0f 94 21 b0 3f 66 8f e4 aa c0 aa f8 3f
       0.0630123650769138 1.5416876483440887
000280 66 c5 bf 2e 2b ed c4 bf f6 e2 8d fd d6 36 08 40
       -0.16348781378432448 3.0267772492337555
000290 0b d6 e7 c7 52 51 f1 3f 4f 8b e2 68 31 55 d0 3f
       1.082354336625374 0.25519976847333664
0002a0 f1 1a 98 fc 60 59 e2 3f 04 e3 c1 4a ea d7 f8 bf
       0.5734105046729764 -1.5527136726579451
0002b0 f9 41 01 cc 77 18 fd bf f2 97 f6 20 bb b0 ef 3f
       -1.8184736222211753 0.9903236049474329
0002c0 80 71 9c 8d 72 04 c5 3f 4f dd 16 b4 5a e6 d3 bf
       0.1641982261143191 -0.3109347113308631
0002d0 1f 86 c3 7e 3e 26 02 c0 d8 f5 0a 7e 1b 9c e7 bf
       -2.2686738875788843 -0.7378060781263072
0002e0 44 b7 b3 4d 47 86 0d c0 0a b0 c7 06 ae 1d d6 bf
       -3.690565688178056 -0.34556151067840857
0002f0 78 b1 ef c5 fc 0f 10 c0 ee d3 a4 cf 3b a0 f5 3f
       -4.015612690691675 1.3516195403183207
000300 02 1b ef 82 70 2b e6 bf 0c fe ee 86 b4 fb d6 3f
       -0.6928026730828096 0.35911286522966246
000310 41 6d 27 35 6a 30 f1 3f ee 3f 58 4e 34 0b cc 3f
       1.07432003749166 0.21909192872453737
000320 47 ab 9c 67 01 05 05 40 f0 86 39 22 b9 53 f8 3f
       2.627444085568104 1.5204402291205348
000330 ce f4 a3 db c8 72 09 c0 24 ca 74 e5 59 eb ef 3f
       -3.1810471686754687 0.9974793893400755
000340 b7 77 82 27 c4 6d 00 40 68 8e 7a 27 a9 f9 00 c0
       2.0535967909517825 -2.1219046673084456
000350 df 68 dc f5 dc ae c7 3f 6e f4 fc 3f 93 a8 09 40
       0.18502389912538938 3.2073121069975548
000360 6c a8 27 92 5b b4 f2 3f 93 c7 fb b9 2e ad 03 c0
       1.169032641332275 -2.45956177997227
000370 69 0c 4b ae 2e 31 16 c0 11 4f 5b 67 9c fc ba 3f
       -5.548029635744663 0.10541703723293618
000380 fc 8f 54 30 e4 46 05 c0 30 cb ea 11 49 a2 f7 bf
       -2.659614923077241 -1.4771204662217308
000390 d3 99 25 c5 e4 17 04 c0 13 80 1f 3a 51 7d ff 3f
       -2.5116668130969884 1.9680950422698558
0003a0 61 d1 e7 1f 43 c4 03 c0 f9 06 88 10 cd 8f d2 bf
       -2.4708311550731854 -0.2900269185484912
0003b0 ee 58 15 79 6f 77 f0 bf 7a 5d b6 50 7b 70 01 c0
       -1.0291590432948925 -2.179922705235808
0003c0 26 e1 d5 0a b7 74 f6 3f 35 41 1d 76 b8 20 e7 3f
       1.4034948752651615 0.722744208042093
0003d0 cb 2f c5 69 04 2d f9 bf 91 54 65 5e 00 8a 0d 40
       -1.573490536847191 3.692383515803677
0003e0 b0 1e 31 f5 46 ce 88 3f 92 da 9c e5 a4 58 d1 3f
       0.012112192495023905 0.271035408240473
0003f0 51 61 34 82 d5 6e ee 3f 31 cb e5 a8 6c 09 ec 3f
       0.9510295432146824 0.8761504458219403
000400 5e d4 d9 75 4d 7f 0f 40 d8 49 27 6b 81 a6 d3 bf
       3.937159462652331 -0.30703769172865014
000410 b5 bd 81 bf 2d b9 05 c0 0c ae 01 27 51 0b d8 3f
       -2.715419288775332 0.37569073495134897
000420 d4 7f 67 91 9c ee fd 3f 2d f8 7d ad 29 56 06 40
       1.870754783616566 2.7920716814105817
000430 a0 77 15 9b ed b0 f9 3f 53 cc 3e 7d 95 49 01 c0
       1.6056953485453747 -2.16092965934653
000440 ca 12 a1 f3 87 a0 ea 3f 7e 34 c7 d5 dd 1d ea 3f
       0.8320960768110919 0.8161458182672872
000450 fb ee 1a 10 41 b6 f5 3f 20 2c 69 f1 bd 1f d4 bf
       1.3569956425771454 -0.3144373757865555
000460 76 b6 43 48 00 37 d4 3f 31 cd 23 aa 18 49 e4 3f
       0.3158570008953129 0.6339228938144627
000470 76 c2 ba 66 76 7d f2 3f e7 ff 05 60 f9 b5 fa 3f
       1.1556304943916564 1.6694272757449597
000480 f5 39 b9 26 90 bd f5 bf 6d 20 eb dc 2b 76 d6 bf
       -1.3587800514829926 -0.3509626061827536
000490 ac dc 20 03 da 74 ff 3f f9 1b 48 f4 7e fe e7 3f
       1.9660282251550525 0.749816395867014
0004a0 a3 9a f4 36 90 16 e5 bf c4 af f3 e2 e7 9d e7 3f
       -0.659004313788348 0.7380256111769019

feature_extractor.0.bias f8 [6]
000000 37 c9 6c 2e bd 7c d0 3f cc 2d e7 8f 18 de ae bf
       0.2576134637230498 -0.060288207594193816
000010 54 39 91 8e 90 9c 8b bf eb 9c 8c a8 c4 72 cc 3f
       -0.013482217169578682 0.2222524474138717
000020 b8 3c ee b3 55 7f d7 bf 3f 26 98 59 c6 b8 b4 3f
       -0.3671468979964163 0.08094443976747188

feature_extractor.3.weight f8 [16, 6, 5, 5]
000000 3e 70 77 73 0f 86 d4 3f 3d 66 3a b5 7d b0 f9 3f
       0.32068239475279714 1.6055886344169175
000010 cf 3d 42 27 4e 07 f4 bf b6 78 3d ba 65 d1 0e 40
       -1.2517835172219411 3.852244811058962
000020 28 cf d5 51 1d 49 db bf 93 97 6b 5a a5 0f 01 c0
       -0.42633755676000584 -2.1326396049580096
000030 f5 33 a7 99 58 36 04 c0 9c 5f 83 fd 44 92 01 c0
       -2.5265361789847653 -2.1964206510273936
000040 d0 aa d4 13 28 3d f2 3f c6 1b cb 09 de cf f4 bf
       1.1399307989728875 -1.3007488615564724
000050 af a7 b6 a1 40 d3 e6 3f bc 97 56 cd 15 69 b1 3f
       0.7132876547304842 0.06800972235814035
000060 ab 61 33 c0 a4 2f 0b c0 6b 4e db 92 d7 4c f8 bf
       -3.3982634559326548 -1.518760274561738
000070 ae ac 16 6d 13 88 f1 3f 78 9e 22 50 99 db e2 bf
       1.095721651198612 -0.5893065037862035
000080 79 c0 86 ee 79 e6 ea 3f ea 6c 98 46 6d 7c 00 40
       0.8406343134611368 2.0607553019777827
000090 63 4f 8d 77 bc 78 05 40 8b 7e 0f bb 55 b4 05 40
       2.683953222274725 2.7130541433433044
0000a0 2a 05 17 5f 8b e6 ef 3f 02 9c 26 48 a4 f1 e8 bf
       0.9968926293587732 -0.7794972809978165
0000b0 f8 0e f4 d3 13 96 ef bf 3f 9e 2c 43 d0 a2 0a 40
       -0.9870700015748914 3.329498791503084
0000c0 ba 10 27 e6 46 c8 0d 40 0d 72 19 a0 19 54 d7 3f
       3.722791479174785 0.3645080626936597
0000d0 31 90 00 bd 49 e2 f2 bf 48 d2 4d 92 8b f7 bd bf
       -1.1802461035631604 -0.11705849000811341
0000e0 f9 57 a1 47 e0 12 f3 bf 52 82 30 e3 84 bc d6 bf
       -1.1921084211403452 -0.3552562922141408
0000f0 74 42 be 62 08 39 cc 3f db a0 26 5f 9b 86 f6 3f
       0.22049050160832773 1.4078630177337377
000100 c9 07 32 fe 8b 5c f3 3f 85 e0 8e f8 75 f4 03 40
       1.2100944451817546 2.494365636692296
000110 78 1c 6b 4d 80 74 ef bf 72 f1 a9 d3 19 13 ba bf
       -0.9829713356092631 -0.10185395639013509
000120 ce ea dc cb 19 6a e7 bf c1 8a dc b7 1e a8 ef 3f
       -0.7317017537783046 0.9892724600834627
000130 fa 17 78 46 11 21 ef 3f b9 01 b7 b2 d5 c6 00 40
       0.9727865578031463 2.097087284288332
000140 a6 21 06 92 1f 41 02 c0 99 ec 91 1f bd 89 05 c0
       -2.2817984970208327 -2.6922552553565535
000150 87 8f 5a 70 f9 46 fa bf 50 fe ac 8f 98 a9 e2 bf
       -1.6423277272051295 -0.5832026296774959
000160 02 26 8c a2 da 90 eb bf 8d 59 b1 93 c7 98 ef 3f
       -0.8614323782687168 0.987399853193709
000170 48 40 7b af 86 6f d8 3f b7 a4 8e 05 96 e1 f9 bf
       0.38180701386318505 -1.6175747124746473
000180 da 17 3f 75 03 28 a6 3f 68 31 a2 a3 fe d2 fb 3f
       0.04327402883750127 1.7390123741089045
000190 11 7f ec b8 cf d5 00 c0 31 1c 8a b4 c8 24 fb bf
       -2.104400105206772 -1.6964804699253018
0001a0 2e f4 7f 00 17 fe 00 40 27 ab a5 b7 29 58 e9 3f
       2.124067310242501 0.7920120798929461
0001b0 64 b5 6c 91 8d 52 d4 3f c8 12 a6 05 fb a7 fe bf
       0.31753863526940607 -1.916010877671555
0001c0 59 0a 71 50 9c f1 d6 3f 4d 5d 23 80 5f 84 f0 3f
       0.35849674087163447 1.0323176389118374
0001d0 5e 79 27 71 c1 57 0c c0 78 12 26 fd d1 da 01 40
       -3.5428494301005875 2.231845834469194
0001e0 1a b1 67 f0 6a 7f f9 bf 38 28 20 a9 c8 c0 fd 3f
       -1.593607844431125 1.8595663649052891
0001f0 5c 49 87 c8 41 a1 03 40 76 40 bd 69 7d 77 e5 bf
       2.4537387529646093 -0.6708361687870041
000200 8e c2 91 e4 35 0e 00 40 78 1b 81 7f f4 fc d7 3f
       2.006938729952089 0.3748141522559574
000210 96 03 6c e4 2f 09 db 3f cc 4a c7 13 67 fb fa 3f
       0.42243573481396746 1.6863775990101884
000220 2c 66 55 54 41 bf f8 bf 5b f7 04 99 95 af fc 3f
       -1.546693162372672 1.7928672768898284
000230 50 df 2d f7 8f 5d c5 3f 6e d0 3e 23 65 16 db 3f
       0.16691779679580998 0.423241886538796
000240 37 f8 c6 ec 64 70 d7 3f 4c 54 e5 5e ce 7b cd 3f
       0.3662349998738849 0.230340763412331
000250 b5 0e 4a 17 01 9e f1 3f 92 c5 cb 01 f9 de f2 3f
       1.101075259183671 1.1794366903453448
000260 92 fb ae e5 d8 46 f9 bf b6 1d 0d cf 65 e0 13 c0
       -1.5797966930401555 -4.96913836972765
000270 31 62 4a 4f 74 95 f0 bf b5 12 1b 55 b6 9e e5 bf
       -1.03648787472606 -0.6756240522596132
000280 cd d2 9a 4b b4 14 10 c0 12 c7 17 b8 e7 39 ee bf
       -4.020219022106812 -0.9445685000957573
000290 2c b9 af 10 d3 44 e3 bf 11 8f 29 d7 41 61 fa bf
       -0.6021514249712587 -1.6487444309977415
0002a0 7a 6f 8b d8 31 f9 f8 bf 72 df 7b d8 cd de 04 40
       -1.5608385523582613 2.6087910569003094
0002b0 f6 e5 89 00 16 1a e7 bf ae a6 9c c6 48 0c ca bf
       -0.7219343195458225 -0.20349988649222922
0002c0 c6 e8 aa dc b4 b4 d5 3f 90 84 5a a2 5d 89 13 c0
       0.339154448981969 -4.884146248602647
0002d0 e2 99 03 91 60 4f eb 3f 66 6c 6b 17 02 ba f8 bf
       0.8534396011644356 -1.5454121508435263
0002e0 ae 26 5d 41 ef 0f ca bf 10 66 32 3a 10 60 ee bf
       -0.20361128512950216 -0.9492264877946486
0002f0 a7 eb e4 fe 74 19 03 40 37 00 cf 28 ed 5a d6 bf
       2.387430182801342 -0.3492997072717147
000300 c7 59 64 ba 32 e9 f5 3f 32 9e cb c1 33 a8 f0 3f
       1.3694331437051106 1.0410649843341955
000310 ce b7 5d e9 eb 85 ef bf 32 f8 61 ab f1 7b d0 bf
       -0.9850978429728856 -0.25756494270888475
000320 f0 51 d6 e8 dc 12 d9 bf 76 47 cf 78 41 a4 ef 3f
       -0.3917763017464315 0.9888007506908554
000330 e3 3d ae c4 45 89 e6 3f cb ec 2b 7b 43 1d eb bf
       0.7042569009226408 -0.8473222165770492
000340 25 a1 7e 23 03 d0 f2 bf 04 35 6e 67 06 84 e0 3f
       -1.175784243250811 0.5161163349272617
000350 2f 55 b6 18 a7 67 b2 bf d6 6d e0 4f f8 f4 f6 bf
       -0.0718941150028811 -1.4348071212942748
000360 68 00 f6 e9 3d 41 c5 bf b8 3e b3 0c ea e2 02 c0
       -0.16605352329134182 -2.3607979767037612
000370 3f 99 1e e5 ec 1e eb bf 4e 55 ef a8 3c 54 03 c0
       -0.8475250697127094 -2.4161313245810225
000380 78 32 cb 5a 06 10 e0 3f 00 87 57 c3 81 f2 e1 3f
       0.5019561551394665 0.5608528914710575
000390 6e ad 0f 4d 57 5a d2 3f 5d 56 e2 e9 b7 a1 fd 3f
       0.28676397824775435 1.851982034311184
0003a0 6b 06 92 e2 b2 fa ee 3f 63 14 ee da 87 a0 f6 3f
       0.9681028771594361 1.4141920616105146
0003b0 57 7a 7e b3 fa e9 00 c0 f1 89 cc 7f 02 ae ff bf
       -2.114247705743121 -1.9799828521869325
0003c0 44 df 89 14 c8 4e f4 bf f1 78 29 f8 c1 b7 e7 bf
       -1.2692337801253908 -0.7411813589967818
0003d0 68 23 ea 4d cd 54 a9 bf 70 a7 e3 3d 8d dd eb 3f
       -0.04947511268716803 0.870794888379562
0003e0 33 85 f6 9e b2 fa d2 3f 70 c8 c2 30 98 41 fb 3f
       0.29655137561538253 1.7035142807694932
0003f0 bd 80 36 5e b3 24 dd bf 0c 6c b1 1f 65 5b dc bf
       -0.45536503029326153 -0.44307830901169676
000400 ca ec 68 b4 bc 3d f0 bf 6c 3e 54 f8 03 60 00 c0
       -1.0150725409755972 -2.046882572241705
000410 90 13 0a 5d c2 9b f8 3f 53 57 3f 27 55 5c 00 c0
       1.5380271562910117 -2.0450842920499013
000420 c9 f8 5a 73 ac 79 ed 3f 3c c6 80 33 95 94 c0 3f
       0.9211027386698102 0.1295343877296079
000430 ab c4 26 97 ac c5 f0 bf ce c0 30 60 62 c3 cd 3f
       -1.048260298190409 0.232525155036916
000440 e5 b6 ec 12 c7 95 f5 3f 26 9d 7e c9 cd 29 07 c0
       1.3490668048138386 -2.895412038971375
000450 cc 1b 5c 9f 31 e9 f3 3f bf 4a c5 53 47 74 00 c0
       1.2444320893280176 -2.0567766708930715
000460 fe b1 f6 75 85 2f 06 c0 f5 f2 92 1a 7a b9 f2 3f
       -2.7732037750158716 1.1702824628875395
000470 81 e7 e9 e3 cb 0e fa bf 2e e5 1c 5e e9 91 a7 3f
       -1.628612413680884 0.046035092104327865
000480 67 a8 df d6 8c 2a f5 bf 6e dd 5b 78 74 5b 0c 40
       -1.3228882211210704 3.5446557429347
000490 f1 50 6b a9 6e 32 fe bf ab d3 b0 4d fd 7a 10 40
       -1.887312566560521 4.120106901090291
0004a0 74 41 ab 8d 0e 0e f4 bf fa 1b 74 de 4b 45 01 40
       -1.2534318479484599 2.1588361148055784
0004b0 7a 7d cc 6a 63 d3 f0 bf 87 0e 28 c9 63 67 f1 bf
       -1.051608483488819 -1.0877416474985766
0004c0 6e d4 3c bc e0 69 03 40 b4 af b8 35 e1 db 02 40
       2.4266981798232825 2.3573631474482344
0004d0 c8 a6 55 d6 6f 5b ed bf 02 64 8d 6b 2a be 01 c0
       -0.9174117265913191 -2.2178543474697117
0004e0 34 bc 7a b2 8f 30 d8 3f dc f0 7c 89 90 95 d0 3f
       0.37796394757873775 0.25912869860236554
0004f0 4a ea b0 96 2f ac e6 bf 39 1b 1a 90 1b 24 fb 3f
       -0.7085187857804354 1.6963153485282432
000500 60 c5 19 3c 9c e5 00 c0 58 9d 31 88 7c 52 dd bf
       -2.1121144004215893 -0.4581595735566757
000510 0f 43 9f 79 6f cc e6 bf 99 ff 16 8b da 30 eb 3f
       -0.7124554992134068 0.8497135845754996
000520 76 21 e3 2e 3e 46 ec 3f 0a ec 99 1c 5a 38 fd bf
       0.8835745731130789 -1.8262578122364652
000530 c5 00 c1 e6 ce 51 d3 3f 80 dc 82 2d 08 62 ec 3f
       0.30186817678987793 0.8869667900934388
000540 2a 60 4b be bf ce c0 bf 44 63 2e 92 a5 42 f5 3f
       -0.13130947868080628 1.3287711820796213
000550 96 31 28 87 61 4e ee 3f 80 d5 1f d7 d9 23 be bf
       0.9470679893288885 -0.11773454191264499
000560 0d 0e 15 0e b5 41 f3 bf 65 81 25 fd f0 c3 e4 bf
       -1.2035418081367226 -0.6489186233775796
000570 ce fd c3 fa 00 7c db bf a6 e2 98 13 f3 bf e2 bf
       -0.4294435929186563 -0.5859313376195885
000580 02 a2 e2 3e 6d 4d d2 bf cb 73 d2 c2 9f 52 08 40
       -0.2859757532228572 3.0403437824702215
000590 fa c7 c3 4f 67 87 f1 bf e5 71 89 00 40 bf 0b c0
       -1.0955575099765142 -3.468383793062673
0005a0 a7 1c 78 0c dc f7 c7 bf a1 d5 41 d8 fd ab f7 bf
       -0.18725157364699394 -1.4794901320977731
0005b0 ba 9f 78 5e 73 80 e0 3f 76 ef 59 d2 a8 9a e5 3f
       0.515680012239492 0.6751293285774256
0005c0 7a 23 d4 1a f8 8d e4 3f 70 b2 d6 e8 ef c0 e7 bf
       0.6423302196500196 -0.7423018977766116
0005d0 4f 24 2f 77 7d 88 f0 3f 2c b0 5f 83 e3 3e e9 bf
       1.0333227782851002 -0.7889268461126497
0005e0 c5 92 33 40 4f 3e db bf d6 44 f6 91 81 38 a2 bf
       -0.42567807454751644 -0.0355873575855498
0005f0 da 6e d9 c1 04 a6 f7 3f b0 ec 5e 4f ee ca fb 3f
       1.47803188059236 1.7370436764165724
000600 51 88 b7 ab 13 b8 02 40 45 b1 87 85 f5 c1 d0 3f
       2.339881269014804 0.2618383220676786
000610 22 fa 51 0e 8a 13 11 40 7a 7b ca 5e 6c 68 b7 3f
       4.269081329110607 0.09143712343437285
000620 03 f6 cc 70 55 e7 ed 3f a5 f3 d9 5f 9b b7 c2 3f
       0.9344889834534914 0.14622823887102956
000630 fa 60 1f 2a e1 8a de bf 4a fb e7 6b ed d2 ed bf
       -0.47722653497250145 -0.9319979770224134
000640 54 80 be c4 e6 8e 06 c0 9d 88 db cb dd 37 e1 bf
       -2.819776093543661 -0.5380696279137457
000650 fc 5d 54 2b ee 1f d1 3f fa 7f c6 b6 c4 68 e9 3f
       0.2675738738193727 0.7940391130287019
000660 6e 8c 90 bb d7 d1 fc bf 2c cd b7 9b 1a bb ca 3f
       -1.8012311293357715 0.20883495906273575
000670 35 0d 62 05 b0 95 f0 3f 42 ef 97 fb 52 f1 ff bf
       1.0365448198579774 -1.9964170291777497
000680 c4 9c 08 78 7b a7 f4 3f 69 42 8f c5 33 bc fb bf
       1.2908892334760802 -1.7334478108570244
000690 a8 40 dd 85 df d5 c0 bf 1d 04 68 c2 8c 73 0b 40
       -0.1315268901476021 3.4314208209984955
0006a0 38 da 83 e1 90 bf d8 3f 1a 49 ec 8d 1e 57 08 40
       0.3866922571463962 3.042538746617663
0006b0 a7 52 d7 57 75 07 08 40 9e 8d fc 13 20 fa f1 bf
       3.003641783007271 -1.1235657482837733
0006c0 bc 84 2f 11 f2 58 ad 3f 3d 7c 60 65 a6 32 f7 bf
       0.0573192258814372 -1.4498657188448896
0006d0 b9 a8 07 b2 43 a3 db 3f 11 d3 90 00 97 d6 ff bf
       0.43183987031683163 -1.9898901006792509
0006e0 f0 34 4d 39 53 bd e9 bf de 50 8c 44 08 7a e4 bf
       -0.8043609732791577 -0.6398965205030682
0006f0 1e b4 7c a9 fe cb cc 3f 09 4b dc 9b df dd e3 bf
       0.22497542644251295 -0.6208341640616207
000700 30 26 85 8e 56 0e e9 3f 2c 86 73 d9 19 fe e9 bf
       0.7830002578350044 -0.812268185338501
000710 8f 43 91 ad 2d eb fa 3f 80 8c 83 66 66 54 f1 3f
       1.6824166088083279 1.0831054691741713
000720 55 f6 b1 e7 15 9a f5 3f de 0c 5d 8f 7d 23 f6 bf
       1.3501185465423948 -1.383664665235123
000730 5c 6c ba 3f b5 81 f1 3f 5a 5e 93 32 69 a5 01 40
       1.094166993082374 2.2057670546744648
000740 f5 ba ae 0e 83 bc 00 c0 1b 70 00 a9 8a aa 08 40
       -2.092046847064348 3.083272285772194
000750 1c 36 30 fb 2e 85 e2 bf d4 1f cb b8 b8 40 b3 3f
       -0.5787577539464936 0.0752063227802176
000760 b5 a1 f3 d0 0c 74 f6 bf ea 1a 6c 5f 3b dc c3 bf
       -1.4033325349974863 -0.15515844497004788
000770 7e dd 21 b9 aa da e8 3f 56 0e df 54 69 60 01 c0
       0.7766927352776489 -2.1720759039469995
000780 8d 71 d3 90 6d bb f3 bf de 1c 71 0e 45 d8 0b c0
       -1.2332587868942 -3.480600464655807
000790 1e 41 dc 07 2b 34 e7 3f 96 60 d6 c3 7b fb 06 c0
       0.7251181748888802 -2.8727946567342526
0007a0 11 ba ec 0f 2e 09 f3 bf 76 28 85 05 a0 8c a8 3f
       -1.1897411939677378 0.04794788424858691
0007b0 20 b6 66 72 3e 2b 07 c0 51 63 d7 5e e8 55 ff bf
       -2.8961152017207183 -1.9584735588780016
0007c0 54 1b cc b4 d2 24 0c c0 bf ca aa e4 fc c1 b0 3f
       -3.5179800152576863 0.06546001990026705
0007d0 91 c8 d5 7e cc 06 cd bf 41 fe 69 62 13 cf e5 bf
       -0.2267699832260104 -0.6815277979039324
0007e0 cb 5c cf 78 19 5f ef 3f d4 32 db 91 07 9d 09 40
       0.9803588256426335 3.2016745944041336
0007f0 78 45 1c 05 94 1f c4 3f 6e 72 8d db ac 88 ef 3f
       0.15721369027646026 0.9854339874396609

feature_extractor.3.bias f8 [16]
000000 3c 0f 72 e9 e7 e9 0c 40 f4 24 f7 b6 06 3a a0 bf
       3.6142118680890274 -0.031692704996723636
000010 9c 81 f5 95 55 4b fe 3f dc c3 77 f0 96 c8 f4 3f
       1.8933921678327357 1.2989720719599438
000020 cc dc 21 37 c9 06 f6 bf 98 c9 21 22 d3 ad 00 40
       -1.3766567376713281 2.0848753611146087
000030 6c bd d9 fe fa 87 95 3f fc 4c 99 a3 55 ad 07 c0
       0.021026536755412037 -2.9596359997900645
000040 2d fa e1 11 70 d9 e3 3f f0 12 83 b4 58 6f 02 40
       0.6202926968833872 2.3043684103489497
000050 b0 27 5e 89 f6 0d 0d c0 41 50 dd 0b e5 26 01 c0
       -3.6318178874834857 -2.143991558734371
000060 08 d1 11 24 ef 68 dc 3f 2a ac 28 d2 6b 36 f4 3f
       0.4439046718828341 1.2632864198046811
000070 f5 06 de 16 a4 61 e7 3f 95 2d 78 ad 44 2c ef bf
       0.7306690642000989 -0.9741538417887791

feature_extractor.6.weight f8 [120, 16, 5, 5]
000000 64 6f 79 66 de 03 fe bf 4c 5c 58 74 41 90 86 3f
       -1.8759445193199662 0.011017333376953563
000010 43 5c df df a9 de d6 bf 51 af 00 56 92 dc 01 40
       -0.3573403059248827 2.232700988670253
000020 19 2d 5c 06 55 ab f8 3f fd cf 79 f4 6e 0b 04 c0
       1.541829132884976 -2.505582723586484
000030 04 22 e9 2d d2 02 ef 3f be 23 59 f2 ee a0 c0 3f
       0.9690943619435193 0.12991129716308863
000040 d1 f3 f5 a6 dd a4 d6 3f f8 98 60 45 57 7f fb bf
       0.3538126116252985 -1.718589087491237
000050 a3 b0 b4 48 3e f3 f0 3f 6a 36 f3 b1 fd 34 08 c0
       1.059385570532904 -3.025874510035284
000060 fe 05 04 6c 68 73 90 bf 9b 39 e0 9f 6b dc f0 3f
       -0.01606524619365323 1.0538135762359164
000070 b6 a9 d4 ab fd 49 c2 bf 54 7c 27 94 12 f3 98 bf
       -0.1428830231682931 -0.02436474828016018
000080 34 34 bc 2e 13 80 f1 bf cf 88 d3 3e b8 0c e0 bf
       -1.093768293914093 -0.501552698810224
000090 df 02 7f a8 df 21 dc 3f 58 49 1d b0 3b b2 e7 3f
       0.4395674844236463 0.7405069770559676
0000a0 41 fb 18 f9 cb 7c f4 3f 88 6b c1 d4 92 c5 d5 3f
       1.2804679613470429 0.34018393303784267
0000b0 1c fd bd ca 0f fe f1 3f 40 e8 07 cd b8 fa f1 bf
       1.124526779138086 -1.1237113961237952
0000c0 7d b8 a4 cd ce 98 f2 3f 1b df 4c 09 7a 8a fe 3f
       1.162306597990692 1.9088077891628419
0000d0 74 2b d7 a7 b7 f6 0c c0 66 d0 1e e4 5a 22 e6 bf
       -3.620467482809028 -0.6916937308765341
0000e0 a8 49 2f 8c 83 82 ed bf 34 67 ae 2f 39 33 fb bf
       -0.922181867407109 -1.7000057089375789
0000f0 ae 65 3b 06 0c a6 f3 3f c5 d5 af 21 9a eb 04 c0
       1.2280388110578815 -2.615040076426086
000100 82 0d 55 c5 c6 3e f8 bf 3e 32 19 db 6b 65 e3 bf
       -1.5153262813845179 -0.6061305312410423
000110 0a 8a fc 1a 77 87 0a c0 42 12 6b ae 5b 87 f9 bf
       -3.3161451443022587 -1.5955464184963977
000120 b7 01 25 30 79 67 ce bf 85 aa 10 ba 34 88 ed bf
       -0.23753275728996723 -0.9228767046054861
000130 59 91 5a a4 50 bd d3 bf e7 cd 8e 7f c6 96 fd bf
       -0.30842987108396397 -1.8493103964545925
000140 9e 16 67 25 d8 18 01 40 6a e8 d7 ae b7 79 10 c0
       2.1371310159764354 -4.118864757469149
000150 e4 95 e4 e8 55 b0 f3 bf fa 69 39 73 8f 60 f7 bf
       -1.2305506799106007 -1.4610743046711137
000160 be 52 f6 7d 6b e0 b0 bf a9 66 63 1c 82 2f e8 bf
       -0.06592437577485108 -0.7557993463953682
000170 00 34 71 e4 80 ff 8e 3f f9 9c a1 b2 2b 51 db bf
       0.015135771724226643 -0.42682926601851495
000180 be 1e b2 8e b3 d4 f0 3f 86 be 4c 7c d6 2f b5 bf
       1.0519290517858475 -0.08276119742071772
000190 c5 bf bc d7 d9 d9 db bf 55 33 07 f2 02 c2 f1 3f
       -0.4351715666589338 1.1098660902236663
0001a0 3c 75 e3 04 00 e6 f2 bf 63 38 42 7c 99 37 0c 40
       -1.18115236196111 3.5271482188900776
0001b0 fb 7f db 40 d1 af 06 40 96 42 30 fe d6 9f f9 bf
       2.8358483378397046 -1.6015233926047237
0001c0 0c da 27 26 d1 63 b5 bf d0 53 b9 a3 d5 5b f0 bf
       -0.08355433637175497 -1.0224205394235817
0001d0 00 6a 46 eb a1 04 b2 bf 82 99 17 a3 63 4f 05 c0
       -0.07038318628330131 -2.6637642613961257
0001e0 5f a3 2e 84 7c a0 ed 3f 24 26 fd 0d dc 43 f3 bf
       0.9258406240161142 -1.2040672823371859
0001f0 f2 a2 ab 69 e2 21 ed 3f 45 38 49 ef 27 23 fa 3f
       0.9103862823368145 1.6335830065832095
000200 65 e1 96 18 4e bd 02 c0 85 5c 3f 20 57 51 fd bf
       -2.3424341126484927 -1.8323584804218467
000210 f8 2a 48 ef 46 18 f3 bf fe 41 e3 86 61 9a fc bf
       -1.1934270235967102 -1.7876906651546274
000220 4c 37 d5 15 d3 62 0a 40 06 00 8c e5 c2 d1 f1 bf
       3.2982541757291184 -1.1137112585711306
000230 15 a6 5f 7b 8f 3c cc bf 2b f0 88 8d 25 6b fe bf
       -0.22059815906622818 -1.9011588600833516
000240 27 23 b3 82 84 f8 b7 bf 05 6c 23 9f 3a 75 f4 bf
       -0.09363582793151846 -1.2786203590719663
000250 1d 4d 39 af c8 90 fb 3f 3d 56 9b 5b a0 ff cd 3f
       1.722847637622926 0.2343635985659364
000260 f0 b8 7d 6c 70 76 fe 3f a4 74 1c d2 11 c9 f8 3f
       1.9039158094342916 1.5490892608134255
000270 55 da 52 74 62 68 01 c0 f5 ee 79 a7 74 4e 03 c0
       -2.1759690368447004 -2.4133084377370957
000280 00 13 16 95 82 15 e8 3f fa 2c 72 6a b9 d7 e3 3f
       0.7526257430878047 0.6200835303328909
000290 4d 20 52 b0 25 46 c5 bf 09 39 6b 7d c4 a4 02 c0
       -0.1662032233182366 -2.3304528997752
0002a0 0d b4 df eb 8d 48 f7 bf 1b 4f e6 3e cb 6b f8 3f
       -1.4552134717771452 1.526316877080666
0002b0 15 b2 63 f6 cd ca 00 40 5c 02 00 57 46 ef f0 3f
       2.099025654714078 1.0584166906775385
0002c0 45 39 c3 d8 da 2e f4 bf f3 80 8e 0b 10 cb e6 3f
       -1.26143917725456 0.7122879243579788
0002d0 cd 4d 58 a1 87 bd 08 c0 b0 cf 97 84 64 e2 c1 3f
       -3.092543850428888 0.1397214553286381
0002e0 f5 ea b5 92 a3 55 e7 3f de 85 ef d6 35 e9 fd bf
       0.7292039742891051 -1.8694361110614106
0002f0 c4 2c 6b fd ef a7 ee bf 12 6e df e3 ca 2e 11 40
       -0.9580001782973331 4.295695839416583
000300 bb 0c 3a 72 fc 10 d2 3f cf ca 39 a6 cc 49 04 c0
       0.2822867503638908 -2.536034868849448
000310 48 ab 79 ab 5f 47 f6 3f 0a c0 63 9b 78 51 f4 bf
       1.3924252222302176 -1.2698904104145208
000320 72 48 73 5c f4 a8 fd 3f 5d 08 95 fd 7e 57 f6 3f
       1.8537486659374989 1.3963613420060235
000330 20 5c 1a 46 70 92 06 c0 00 42 88 a5 df bd ef bf
       -2.8215032078546898 -0.991927932076635
000340 52 95 c5 9f 4f 56 0e c0 21 9d da 84 cf 83 08 40
       -3.7921440584347375 3.0643606547561295
000350 98 53 db 4b 86 cb 9a 3f af d4 2a 6c fd 8a fd bf
       0.0261670097159655 -1.8464330888066731
000360 54 d5 06 c6 83 d9 1a 40 a4 8a 84 2f 42 76 d5 bf
       6.712416738669464 -0.3353429283180651
000370 c6 8c bf ca 5c 86 04 c0 2a d6 da a6 da e0 db 3f
       -2.565606674166335 0.43559900564591436
000380 ec 5b 77 e9 54 b5 f2 3f 91 2a f4 5c 88 fb e0 bf
       1.1692704314971207 -0.5307046714309128
000390 80 8b 89 f9 a4 23 f9 bf c8 56 9b bf 21 91 e0 bf
       -1.571202254061717 -0.5177162878341841
0003a0 fc 60 aa 1f 76 3d f1 bf 73 f0 50 94 0c 77 f5 3f
       -1.0775052296576737 1.3415647309875822
0003b0 37 21 14 ad 28 0b ff 3f 1c 1e 7f 9e f1 90 fb bf
       1.9402243386158042 -1.7228866759559258
0003c0 fd 4b 0d 43 c6 f5 a0 3f db 76 ac 65 29 34 e5 bf
       0.033125110325862274 -0.6626173959554892
0003d0 4b e4 cf 34 ad c8 f2 3f d3 16 9d b5 33 82 f0 bf
       1.1739933073970572 -1.0317875952036288
0003e0 a4 ad 0e ff 21 4a f9 3f 58 ca 57 78 e3 52 7b 3f
       1.5805988276650647 0.0066708455610631975
0003f0 68 e4 2c 56 a0 3d db bf 55 20 36 a5 71 1f f1 bf
       -0.4256363717609646 -1.0701767400332944
000400 b3 0c 2a fd 54 95 f5 3f f7 7b f9 18 f1 ce 0b c0
       1.348958004877926 -3.476045794595389
000410 3e b1 a1 d0 f3 09 03 c0 cc 8f 62 ef 4f 4f fa bf
       -2.3798595713944044 -1.644363341424639
000420 68 10 07 7a 2f 1c b2 bf a5 3f 1f 66 a5 ac 05 c0
       -0.07074257592381772 -2.7092998483930892
000430 88 73 7a 87 9d ec e6 3f 8c f4 4a 77 47 f4 f2 3f
       0.7163837095318835 1.184638467776753
000440 53 fe 57 88 3e 94 f4 bf 22 e4 20 51 fc 0e d9 3f
       -1.286192448227571 0.3915396492262194
000450 a3 4e 0d 5e 5d 16 f3 3f 30 a8 3b 04 63 e1 fd 3f
       1.1929601358323587 1.8675260701516088
000460 ae 1e af 1b c3 6f e5 3f 22 26 ae 5c be d9 d7 bf
       0.6698928394989332 -0.3726650147515064
000470 95 35 3f 90 7b d9 f8 bf f2 fe 99 1e 95 e0 f3 3f
       -1.5530963549275374 1.2423297114727885
000480 f0 55 9b d1 5b cd 03 40 7a f4 eb a5 13 81 08 40
       2.4752727866677944 3.063025757087016
000490 52 bc 06 ef 07 97 05 c0 01 ca 39 85 a2 9e 09 c0
       -2.698745601075225 -3.2024584205876185
0004a0 d8 3e e0 21 31 e5 f7 3f c8 06 24 38 0a 95 02 c0
       1.493455059364285 -2.3227733980173504
0004b0 9e c2 9d 92 28 b5 d9 3f 2d ad 34 08 f4 06 0c c0
       0.4016820365714383 -3.503395141704138
0004c0 06 b1 5b 33 30 c8 f2 3f f5 42 0f 5c 32 69 0a c0
       1.1738740926912796 -3.301365584579225
0004d0 e8 ee a3 fb 8e 3a f3 bf e7 71 18 d6 38 18 02 40
       -1.201796515436337 2.2618271566591264
0004e0 54 05 97 86 ee 12 d7 bf 30 3f f0 c2 cd ec c0 bf
       -0.3605305017809617 -0.13222667711715408
0004f0 95 5a 23 a6 06 b9 00 c0 d9 24 88 5c 67 03 ee bf
       -2.090344713167108 -0.9379154975187262
000500 78 68 4a 49 8b 38 b5 3f 2e a3 25 d7 5a 2b 02 40
       0.08289404429743452 2.2711693580971746
000510 d5 0a 6c 5f c0 e9 00 40 46 ca 54 39 88 7c e7 3f
       2.114136453137102 0.7339516753912185
000520 e3 9c bd 3c 61 47 b4 3f 72 06 f8 82 14 b6 0e 40
       0.0792141698162712 3.8389063102666166
000530 f6 28 77 43 cc c4 c8 3f e2 af a9 d7 6e 4b f7 bf
       0.1935057954236254 -1.4559162544564903
000540 14 be 02 0a 1d 95 ee 3f 7b 7c a8 90 8f f9 04 40
       0.9557023234864936 2.6218558598916935
000550 82 de d9 9e dc 14 09 c0 22 25 f7 5a 03 8b 0b c0
       -3.1351864252317805 -3.44287749354102
000560 0f 47 a1 a1 13 58 f5 3f f5 58 a2 17 b6 20 e2 bf
       1.3340030969306473 -0.5664930783848648
000570 49 d3 d7 fe ec fe e3 bf cb 51 c1 21 a7 8d fb bf
       -0.6248688676265398 -1.7220832174835887
000580 1e f0 ef 82 cb bb 0b 40 66 de 46 44 35 00 0a c0
       3.466696761081052 -3.2501015981795716
000590 bd de 62 c5 c0 d8 01 40 86 2a 69 94 bd 98 e3 bf
       2.2308364315793754 -0.6123950861595666
0005a0 86 68 10 70 35 e6 f8 3f 07 54 dd b6 e2 38 c7 3f
       1.556203305960055 0.18142351082738647
0005b0 4d 5a df 82 af ed e8 bf 79 c5 7b e2 92 d1 e0 3f
       -0.77901435433416 0.5255827353959567
0005c0 df 8d a1 a7 7f 5c 04 40 a3 7a 8f a4 4a 38 f7 3f
       2.5451653572251725 1.451243059934918
0005d0 43 83 49 28 06 de ec bf fd e7 c4 d3 bf a6 f6 3f
       -0.9021025454386308 1.415710284446049
0005e0 0e f5 83 93 42 24 e4 3f 26 7a cb 72 f2 fa 02 40
       0.6294262772713937 2.372532746157293
0005f0 95 80 e0 f3 5b 33 10 c0 a7 41 24 2a 59 5f f7 3f
       -4.050155459001094 1.4607783933789535
000600 0c b6 84 8f e7 8c ff bf 38 74 9a 11 75 0a 06 40
       -1.9719005209148035 2.7551061034451116
000610 dc 05 0b 4c 0a 7c d0 bf e3 c3 8b f2 3b 8b e2 bf
       -0.2575708143814077 -0.5794963586068856
000620 1c a1 e8 55 75 d8 e8 3f b3 16 9a f3 a1 86 e1 3f
       0.7764231374649486 0.5476846464013846
000630 f9 d9 c5 01 98 ac 04 40 91 83 9b c9 9a a4 e9 3f
       2.5842743052010033 0.801343339695551
000640 02 98 aa 0e a3 24 07 40 2a a2 8c d4 89 39 bb bf
       2.8928891321002093 -0.10634671630089856
000650 7a 3c 85 b9 09 16 de 3f c9 56 7f 8c 7d 6a fb 3f
       0.4700950919840988 1.713498638933219
000660 67 7c 74 f5 20 4b 02 40 06 53 2f ba b5 4c d8 bf
       2.2866839576886835 -0.3796819990359811
000670 4a ac 4e 2b 1a a2 9c 3f d0 a6 d9 97 5f 2a d3 3f
       0.02796212090803988 0.29946126774903536
000680 b8 a3 d3 d6 e0 2d d5 3f 63 9d 0c 7b 04 f7 04 40
       0.33092518786593983 2.6206140149330834
000690 15 47 1f 6e 45 c7 02 c0 f5 68 5a fc 7f 22 07 c0
       -2.3473003962798296 -2.8918456759539546
0006a0 cf 09 b1 56 ea 96 f5 bf b7 76 65 b1 08 ca f7 3f
       -1.3493445764912513 1.4868246964974057
0006b0 d4 b7 d7 96 a7 7d f2 bf 73 29 00 45 44 b5 0c 40
       -1.1556774036684958 3.5885091200518047
0006c0 00 5a 87 ec c8 c9 ff bf dc 1d 26 b2 99 2c 02 c0
       -1.9867638816264162 -2.2717775266535067
0006d0 ab 3a f5 62 81 6d e7 bf 1b 5d a4 e0 16 a3 f3 3f
       -0.7321173603794099 1.2273167395667943
0006e0 8f 58 46 9b 5c f2 fa bf 6f f6 cc 23 c8 5c f8 3f
       -1.6841703477307737 1.5226518057310405
0006f0 38 97 be f7 20 d4 fa 3f 1a 7d 7f 36 b9 57 10 c0
       1.6767892529982884 -4.085667468577663
000700 62 26 ec 23 17 87 04 40 38 97 e7 a6 da 17 ef 3f
       2.565962105411743 0.9716618785721272
000710 c6 a9 24 c9 e6 42 f7 3f 56 0c a6 70 99 c4 02 40
       1.4538333756596429 2.3459957886384855
000720 67 56 f6 54 a1 18 eb 3f 4d 4d 9f 2a 14 b9 09 c0
       0.8467566165370045 -3.2153704957833384
000730 ff 6d 55 5e b3 45 fd bf 54 45 51 49 44 5a d4 bf
       -1.8295167622480901 -0.31800944480808835
000740 71 b4 02 a0 74 9f fa 3f 62 c1 c6 c6 d5 fe 06 40
       1.6639295816815116 2.8744311837582908
000750 89 76 d7 7b 26 ab f2 bf 65 fe 33 04 a6 57 ec 3f
       -1.1667847478451299 0.8856992799846465
000760 02 8a 0c 82 12 ef f4 bf bb fe 56 5f 4e 8c c6 3f
       -1.308367259982902 0.1761568036581503
000770 57 b8 fe ca 24 83 d9 3f 25 5a e6 3b 49 0d f5 3f
       0.398629377591424 1.31574366949429
000780 54 de db ba 07 16 03 40 f4 b9 a5 55 6c 30 ef bf
       2.3857569311474354 -0.9746610329437417
000790 a1 46 4e 6a 10 a4 d2 bf 11 27 b4 dd 6c 24 f9 bf
       -0.2912636793272246 -1.5713928852368932
0007a0 e4 f8 d9 2d ff eb e7 bf 4c d8 96 d5 e7 78 ec bf
       -0.7475582023178302 -0.8897589847245029
0007b0 58 e0 0e ab 1e 5e fb 3f a0 c7 a6 e9 19 20 ff 3f
       1.7104784662206125 1.945337212277515
0007c0 42 c2 54 27 b4 94 dc bf a5 2a bd cc ba 30 10 40
       -0.4465761550991695 4.047587584539234
0007d0 4f 60 c5 6c e9 d9 d7 3f 17 4b c5 15 3a 95 fb bf
       0.3726752817360692 -1.7239323473374435
0007e0 21 2d 18 bb c9 da e8 3f 84 44 4e 46 44 de a5 bf
       0.7767075208843474 -0.04271138532852439
0007f0 32 ca 80 79 61 77 c5 3f 43 86 bc 00 0e a3 0f c0
       0.16770571167724452 -3.9546165521176433

feature_extractor.6.bias f8 [120]
000000 9f 86 be 87 d2 5d 00 c0 76 4b 8c 5b 0f 51 10 c0
       -2.0458117108363036 -4.079160147130883
000010 e9 42 8c 2c 46 b2 ef bf 34 73 c6 d2 81 5d f3 bf
       -0.9905119772029966 -1.2103288873106068
000020 18 9d 47 05 86 bc d5 bf 2d 63 4e a6 68 f1 e4 3f
       -0.3396315623817414 0.6544688461463913
000030 74 7f d4 e8 76 c8 ea 3f 82 d4 7d a8 89 9e 00 40
       0.836970762964468 2.0774109996223737
000040 b2 1e e3 61 da aa fc bf 7c 26 c8 11 cc b5 db bf
       -1.791712171909165 -0.43297101723201314
000050 b9 63 60 23 2c a8 ce bf bb 5d c5 e8 0e ab f3 bf
       -0.23950721480721684 -1.2292622654548342
000060 db 6f aa c4 c1 7a 06 c0 77 13 2c ad 1b 53 05 40
       -2.8099398960602975 2.6655801323963106
000070 78 27 6e 2e 00 b8 04 40 a7 13 3a a5 15 62 04 40
       2.589844095932616 2.547892847857344
000080 34 20 28 5d cc 6e e9 bf bf 80 90 d9 57 0b 0c c0
       -0.7947751826732259 -3.5055386540626325
000090 81 44 ff 77 98 75 00 c0 84 be 76 f0 a5 df 01 c0
       -2.0574197172905433 -2.2342032228696684
0000a0 16 df 33 45 87 14 b1 bf 30 90 0a b7 e8 a0 0d 40
       -0.06671948852078588 3.7035688686464923
0000b0 fc 4c ab a8 6b 8d e9 3f 27 de 6d 62 3d d4 dd 3f
       0.7985132498091896 0.4660790883276342
0000c0 c3 4a 40 3a 33 d1 e5 bf 3c 08 b5 1c 29 bc a8 3f
       -0.6817871225087732 0.048310551409045804
0000d0 94 a1 72 77 8c ed f5 3f 48 05 22 c1 b7 a1 00 c0
       1.3704952875069454 -2.0789637650019905
0000e0 c2 1e 6e 11 fd e7 e2 bf 44 81 70 89 02 0f f3 bf
       -0.5908189144547225 -1.191164528725566
0000f0 e3 05 d6 0d 78 bc e4 bf 39 03 d2 7d 20 d9 e1 bf
       -0.6480064649805936 -0.5577547509602488
000100 28 46 74 11 1e ef ed bf 09 8f 6a 48 a3 58 ee 3f
       -0.9354391423132187 0.9483200468425547
000110 51 b0 81 c4 62 b2 e1 3f 8c 7c 9a 13 24 31 fc bf
       0.5530256116885629 -1.761997295928981
000120 43 b3 e1 ac 0b 7c c4 3f 27 a9 50 dc cb 28 c9 bf
       0.16003557149397282 -0.19655750520298307
000130 66 c3 80 f5 2b 03 fc bf be 32 da 2f 0e f1 be bf
       -1.7507743444404809 -0.12086571377057972
000140 5d 7d 0d 25 54 43 05 40 5e f1 8e 65 50 de db 3f
       2.6578753370992403 0.4354439727574312
000150 34 32 f5 36 88 a0 da 3f 1d ad c8 7d ce 0d f7 bf
       0.4160481011101951 -1.4408707536156904
000160 a2 34 bf 20 a8 67 fe 3f d0 6f 39 1c 94 75 d6 3f
       1.9003068236518534 0.35092642551694286
000170 fd 4d 0e 72 e3 d1 09 c0 d8 44 97 de 81 4f a1 bf
       -3.2274845991721564 -0.03380971758054735
000180 22 f1 37 08 1e 06 09 40 63 6f 59 36 a3 56 e3 3f
       3.1279869691917535 0.6043258725653512
000190 71 e1 70 70 f4 ff ee 3f 96 fa 08 22 0d 3f 04 c0
       0.968744487391673 -2.530786767863286
0001a0 6e 68 a5 1f 53 7f ef bf 4c 7a 09 e8 ed 0c ac bf
       -0.9842925661171316 -0.05478614289744552
0001b0 5a 15 86 6e 82 fa 08 c0 6d 53 26 61 3b cc e0 3f
       -3.122319091288472 0.524930658097771
0001c0 97 4a f5 bd 3a dd f4 3f 67 42 e2 f0 9f ec 10 40
       1.3040110988846771 4.23107887631395
0001d0 54 34 84 41 4f 53 f1 bf b0 13 b8 35 3e 7f c3 3f
       -1.0828392562136928 0.15232064841270931
0001e0 8a 2b 5c 8c bc f0 f0 3f 92 28 c9 d0 b3 53 d2 3f
       1.0587735636533773 0.286358789341315
0001f0 26 5b 8e 45 8d 4b e4 3f 79 32 30 9f 8c ae c9 bf
       0.6342226370350985 -0.2006393220221019
000200 38 fd ae c9 ef 99 00 40 43 1d 2e 2d 46 12 e2 bf
       2.0751643902327963 -0.5647307283806317
000210 4c 5d 53 2a 7e 9c 05 c0 90 34 63 98 85 05 09 40
       -2.701412516278344 3.1276962189936697
000220 4a 97 b0 3c ef 97 f2 bf a9 94 7d de 33 45 01 c0
       -1.1620933886237759 -2.1587903387140455
000230 0c 27 38 6f 61 aa ff bf 34 cf 85 99 56 11 e8 3f
       -1.9790968269830413 0.7521164892664047
000240 3d ff 8c b0 b0 77 e3 3f db 61 9e 03 c1 ed 08 c0
       0.6083606193787784 -3.1160908014974047
000250 08 c1 57 78 c3 66 9e 3f 8d 05 07 84 ee c4 08 c0
       0.029688886852398816 -3.096158057655606
000260 8b da 04 4c 22 fe 02 c0 ec bd 3c f1 84 81 de 3f
       -2.3740888537389018 0.47665523107840957
000270 5e d6 4d 79 86 b2 ef 3f 1a 3f c9 9f ad b2 e9 3f
       0.9905426377506037 0.8030613060782088
000280 8a 67 c2 c0 45 3d b2 3f 10 80 66 39 9c cd f6 bf
       0.0712474437335954 -1.4251978151514813
000290 d6 c4 87 95 8a 44 04 c0 3e a4 5d ce 92 1a fc bf
       -2.533467453199232 -1.756487661472661
0002a0 81 4f 1f 57 d1 ce e3 bf 65 fa 08 aa 1f 94 dc bf
       -0.6189963056190068 -0.446540752458452
0002b0 8a fb b8 8e 0e 4d 04 c0 d4 3f d6 c7 1b 36 db 3f
       -2.5376254224970056 0.4251775218517626
0002c0 e5 de 66 6d aa 98 d8 bf 2d f0 ae 8d b5 33 f5 3f
       -0.38431797679684926 1.3251243147378873
0002d0 5c ca e8 2e a7 68 d7 bf e5 3f 67 99 18 cd 0c 40
       -0.3657625158404352 3.6001445755609773
0002e0 ff 70 e9 c3 12 bd fe bf 0c 3a e0 ff 4a 4f ef 3f
       -1.9211604740913228 0.9784293172431844
0002f0 18 62 e6 44 9a 04 f1 3f e6 92 9d e1 87 21 0a 40
       1.0636236850169833 3.266372454282066
000300 ee 81 d5 43 6e e3 0b c0 48 a1 e0 d6 e9 ec f2 bf
       -3.4860501575023966 -1.1828401940966433
000310 26 07 1e db e9 2f c3 bf 8c 11 6f 61 ad 1a 00 40
       -0.14989970397078273 2.0130260097523145
000320 b2 a3 7a 05 91 87 ff bf f0 ba cf 1b 2b 9e fc bf
       -1.970597287561969 -1.7886153303513161
000330 74 40 e8 d2 42 52 d3 3f 39 80 52 fe d5 c4 12 c0
       0.3018958148613884 -4.692222570214704
000340 5a 89 6f 5b 8d 9f e0 3f 65 5c 86 4f ff 21 0d 40
       0.5194765840390503 3.6416002476576517
000350 70 71 14 81 0c 15 01 c0 80 7f 2a ff 0d ba ee bf
       -2.1352777561534637 -0.9602117522917837
000360 b6 41 e4 22 7a db d1 bf 59 53 b6 ac a5 ef 02 c0
       -0.2790208187807609 -2.3670152180806494
000370 08 aa 32 f3 8c de e3 3f f9 77 9b a8 6f e2 02 40
       0.6209168195685502 2.3605645344205155
000380 63 28 2d 2e 5a 7a f8 bf b7 5d ff cc 38 3d 03 c0
       -1.5298711589589622 -2.40489349512401
000390 25 ca d6 37 2b 08 eb 3f a4 ba ae f7 67 3f 97 bf
       0.8447471705060862 -0.022702812664358377
0003a0 e9 4d ef 14 a7 cb e4 bf 5e 78 be 0e b9 2d d0 3f
       -0.6498599442369911 0.2527907031998263
0003b0 54 af e1 db 4d 01 f6 bf 34 e7 2f 02 61 3b fb 3f
       -1.3753183926700858 1.7019968114313544
