medium_post_results/second_experiment/complete_trainingset_better_initialization.pt (torch, 496839 bytes, 10 tensors)

feature_extractor.0.weight f8 [6, 1, 5, 5]
0.1721456236815146 0.5535380381719578 0.22576256544145673 -0.2490447025515212 -0.9743053119602493 -0.5623603146125653 -0.1799623982483811 -0.02393338032765599
-0.7011688455568913 0.18908364800438282 0.30067799656514876 0.4566145720074463 -0.31713727214678455 -0.10314567689486787 0.2876365257815123 -1.1508972333895653
0.39242933687377857 0.760765315537041 0.5666077213093568 -0.3066150006541264 -0.6619412749008637 -0.9409384800908199 -0.8678480630422536 0.9846999938609258
-0.11230372680164624 0.7468379453376928 0.5594655311640405 0.7096460596418798 0.7529812066264021 -0.6572495914303573 0.10627512658123009 0.490873496317068
0.851301103577337 0.7346609070389882 -0.8100185485634217 -0.08008400521567488 -0.7832598405092718 -0.229880466382467 -0.15714419481369934 -0.35381671505651446
-0.23718023401246383 0.23243234535109028 0.4476023628921109 0.139422244477847 -0.8027922931076028 0.47984577488862534 0.8497483740557867 -0.8257045639780913
0.033780842994773186 0.4486003122432999 0.22819590045486776 -0.9081225768431973 -0.845147275553302 -0.252734208704331 0.7288582449999736 0.3903998766095595
0.7707693215175025 0.025939126442918264 0.7710392462903887 0.3994990461690042 -0.6794610541732227 0.4067498889714277 -0.5209226659342606 -0.7366896932187619
0.13336454903412315 0.07461718115113455 0.01309886825529058 -0.12767222214603027 0.8108185862568623 0.055697655657272846 0.23181112985691446 0.628082487045804
-0.035496587521926415 0.8135660685105006 -0.1808908642535823 0.5666249208224312 -0.12952775462335542 -0.6058270127517945 -0.6853718854302552 0.9109899946816713
-0.66378719468236 0.49078980562759866 -0.9358687639030686 -0.8243599076465162 -0.610048569038707 0.24031144626736864 0.5743689019974905 -0.5499601475444004
0.42852730365791125 -0.16488932247996746 -0.21766912706131025 -0.7846499269190703 -0.7865619347343799 -0.4024853632825702 0.49287586114586396 0.6827096306849079
-0.58328157176031 1.0409584944136492 0.2137873693778591 0.048133975621026864 0.4552665655334859 -0.6397234459814092 -0.9821762044882033 -0.3761663299112511
-1.059082838201043 0.5671349538394871 0.35352972664408394 0.5146854381763494 0.7132346592994203 -0.4746383985054482 0.8629780534616438 0.46003585360517385
-0.2244147053310378 -0.8582451319296227 -1.0351865567879448 -0.40337341848350367 0.23111032598918307 -0.9188066995091358 0.3383831015923895 0.18112744356352814
-0.4742142749917068 -1.001266468811963 0.6583262012365264 -0.769491564473366 0.44552626826564934 0.03966524057134024 0.1480793347604536 -0.36726282610980243
-0.9278308064645466 0.6954054204594196 -0.06012140039769531 0.47981926668091757 0.10210012781143078 -0.28775001183860294 0.9875590920954826 -0.06704184012938344
-0.51613099545055 -0.7139107524758608 0.5273326912062934 0.3368916216224842 0.11425543250094372 -0.15849279201751867 0.1968044484525646 0.2846773195775585
-0.8425473335236349 -1.0021507089443966 -0.3433290512443915 0.04622584206749317 0.2490693204381142 -0.17792593286880953
00000000: d649 ee27 de08 c63f 414c 6167 95b6 e13f
00000010: feb5 9da9 c9e5 cc3f d7b4 5962 b2e0 cfbf
00000020: f306 6655 822d efbf 2089 fa0e dbfe e1bf
00000030: 6f46 7e03 0209 c7bf f8f8 28f7 fd81 98bf
00000040: 7182 94a5 f96f e6bf c48f 319a e433 c83f
00000050: 7df1 77ec 4e3e d33f 8789 6953 2c39 dd3f
00000060: 4aa3 0d21 fa4b d4bf c8bb fc4c c167 babf
00000070: 4b77 d707 a368 d23f e570 a737 136a f2bf
00000080: 4049 f7ef 8f1d d93f ef34 c580 3058 e83f
00000090: a2e9 1584 a621 e23f 8070 1186 949f d3bf
000000a0: d24b f277 9f2e e5bf 7337 f103 2b1c eebf
000000b0: c83a 154d 69c5 ebbf 6621 c08f a982 ef3f
000000c0: 40fd d4e1 efbf bcbf 2864 d4b0 18e6 e73f
000000d0: a3d7 f241 24e7 e13f 5db5 3ca7 6bb5 e63f
000000e0: 06d1 1e0b 6c18 e83f 8016 904b 3008 e5bf
000000f0: c26d 0bc1 d834 bb3f 40eb 49ab 786a df3f
00000100: 563a ddcf db3d eb3f 943a 2c97 5782 e73f
00000110: 1077 e704 aceb e9bf 2482 55a7 6280 b4bf
00000120: 6d3d e8f0 7610 e9bf d20b 8d1e b96c cdbf
00000130: 6894 bd0c 4d1d c4bf 4e89 fcdc eea4 d6bf
00000140: 19ab 2b02 ec5b cebf a562 e8d4 57c0 cd3f
00000150: e1f8 8e61 84a5 dc3f b002 2f8e 96d8 c13f
00000160: 9418 8c76 79b0 e9bf a04e 910d cbb5 de3f
00000170: ccc2 8c80 2331 eb3f f433 4efa 2b6c eabf
00000180: 38a8 c9ff b84b a13f f6dc 8315 deb5 dc3f
00000190: 8a78 c4f4 8535 cd3f fc9f 0914 570f edbf
000001a0: 02c2 994c 720b ebbf 69cb 3d1a cc2c d0bf
000001b0: 263c b686 ce52 e73f afa1 99c3 4ffc d83f
000001c0: 65b0 956c 24aa e83f b85c 094f c98f 9a3f
000001d0: 9dfd 577f 5aac e83f 700f 8572 6491 d93f
000001e0: b48c d21b 25be e5bf a22b b2af 3008 da3f
000001f0: 5bd9 bd02 66ab e0bf 6a98 7543 f692 e7bf
00000200: 7a0f 46ec 1612 c13f 668a c390 1c1a b33f
00000210: f02e 2b56 94d3 8a3f c9c7 5c39 9057 c0bf
00000220: 2bca ded1 39f2 e93f 0612 0633 6784 ac3f
00000230: edc8 cab2 fcab cd3f 93aa a171 4019 e43f
00000240: 0074 0dd5 9b2c a2bf a469 2cb5 bb08 ea3f
00000250: c2a1 0e8d 6e27 c7bf 64fd 0096 ca21 e23f
00000260: 440c 048f 5d94 c0bf b5ac d954 ef62 e3bf
00000270: 6faa 3005 91ee e5bf 0283 447d d426 ed3f
00000280: 1f42 95a4 be3d e5bf ee5d 18a5 1969 df3f
00000290: d5f8 c90c a3f2 edbf 3636 6f07 2861 eabf
000002a0: 62c5 9f93 8485 e3bf d351 4985 86c2 ce3f
000002b0: 9665 3de4 3a61 e23f 21cf f905 4699 e1bf
000002c0: b2d7 a9c8 fd6c db3f 586a c1e3 171b c5bf
000002d0: 90e1 09fb 94dc cbbf 68a3 dd29 da1b e9bf
000002e0: 03ce 3eef 832b e9bf 57b5 1af8 51c2 d9bf
000002f0: 25ff 2632 478b df3f e096 0ede c1d8 e53f
00000300: 833d 621d 3eaa e2bf 1700 2018 c4a7 f03f
00000310: a74c e36f 625d cb3f a4cf 3c36 04a5 a83f
00000320: 926d 7b60 1623 dd3f b82f df4d 9d78 e4bf
00000330: b1f5 a5ca fc6d efbf 96cf 34f1 1b13 d8bf
00000340: e140 9dd8 00f2 f0bf 1317 e533 f825 e23f
00000350: 0769 8625 3ba0 d63f 373c 9698 4d78 e03f
00000360: 2012 027e d1d2 e63f 066e c0bb 7960 debf
00000370: 6e12 9926 849d eb3f c42f 8e38 3a71 dd3f
00000380: 4cb3 11fe 9eb9 ccbf 8ed8 b27e be76 ebbf
00000390: ef9b 6ac7 1f90 f0bf 7997 1dbe ded0 d9bf
000003a0: b61a f2ed 0595 cd3f 1799 b74e dd66 edbf
000003b0: 58ef b698 11a8 d53f 5fb8 411f 2f2f c73f
000003c0: d3af 98d4 8659 debf 810f 22fd 2f05 f0bf
000003d0: 3d25 0d1c 0211 e53f 5ec0 fec5 ac9f e8bf
000003e0: c86e ed9b 8083 dc3f 2071 159e 004f a43f
000003f0: 0e3a 017e 43f4 c23f 9666 cbf0 3b81 d7bf
00000400: ae91 3f3b cab0 edbf e2b2 4ade c240 e63f
00000410: a0e2 fe70 3bc8 aebf d4a7 98de 5bb5 de3f
00000420: 7b15 dee5 3b23 ba3f 704e 9106 7f6a d2bf
00000430: 925c 6d86 159a ef3f bac1 d16e a729 b1bf
00000440: 682f 3d26 2584 e0bf bab0 c45c 5bd8 e6bf
00000450: 60f7 dace e8df e03f f88e 4ae0 a18f d53f
00000460: 105d fb11 d83f bd3f f5f8 2ee7 7d49 c4bf
00000470: 8fd1 e75e e330 c93f 50e8 5f38 2738 d23f
00000480: ce1c 5ad3 25f6 eabf 3745 892e cf08 f0bf
00000490: ae20 b769 1af9 d5bf 34e4 d1df e9aa a73f
000004a0: 8efc dbe4 80e1 cf3f f412 64e7 46c6 c6bf

feature_extractor.0.bias f8 [6]
-0.8362971775125638 -0.9413973359885308 -0.06030948490927784 0.38661798972047023 -0.8971096797525863 0.521993450537284
00000000: 08ea 644c f2c2 eabf aa97 534e ed1f eebf
00000010: 47dd a582 e2e0 aebf 8042 7961 59be d83f
00000020: e9cb ee5b 1fb5 ecbf 1f15 d99b 2bb4 e03f

feature_extractor.3.weight f8 [16, 6, 5, 5]
-0.4656638201699537 -0.7239128244050911 -0.25420539043488094 0.8827242583505184 -0.3484656650266643 0.42412904281574276 -0.4847953668387279 0.6968221255733522
0.11486016926366596 -0.015257203418273788 -1.191161503984598 -0.856389848404262 -0.7227566456194875 1.0091801040333614 0.20507036619954003 -0.048560176876891764
0.8049291743889604 0.43650253748361073 -0.6196831782435023 0.9703946536876258 0.32397319818214587 -0.060754665012993314 0.47898397158443473 0.7205880650687393
0.8797145196517071 -0.3036187714511844 0.34728165838883174 -0.13129874082098425 0.9328396238559695 -0.9749554943570826 -0.029613857332851025 -0.9726381256174755
0.1992320063825152 -0.788134951081386 0.6311209706672654 -0.5029010095986015 -0.2306863381748849 0.20226439471500013 0.5008224386155996 0.28659514088967486
-0.13358608659506788 0.5534525113195907 0.7129195002150199 0.42575452847853684 -0.6938531092615905 -0.15908675359144026 0.6176745786376675 -0.9122072642658428
0.2750058549043314 0.8122975917474146 0.8384356321914896 -0.3670844368224606 0.7887171704236121 0.02019997081806954 0.1880927611070006 0.38329270883289657
0.07553870611279775 1.0109277149666356 -0.03502105441229912 -0.3815467356496738 -0.17361024764855226 -0.38556786752525496 -0.14189677583207497 0.9360289600024999
0.4856123266178257 -0.09713758795289425 0.9594317524139211 -0.17979328227564154 -0.3162410752158586 0.8114729692508154 0.9571106981140791 -0.8880944498923375
0.9626563231326712 0.5661435115536164 0.2517878712357616 0.7878129948617945 0.41024158613495454 -0.5763172143695978 -0.9841606397276013 -0.8219394133442782
0.4847189574622226 -0.5308453030089596 0.007213217293077001 -0.5867972060781471 -0.7275835631540163 0.15921101451286918 -0.6265425113771098 -0.09518520454195797
0.050169962125637846 -0.23140450979938287 -0.4884058500369053 0.04197960692099653 0.5001554962238886 0.9395486810864463 -0.7037769090680484 0.6585404369733456
0.16256133452169375 0.8399042533258605 -0.41908653620807756 -0.7985319304291654 -0.8531430577153206 -0.9164863051551975 0.6206006751630592 -0.7891008305958391
0.20452157980094787 -0.47720544694427636 -0.07544484555181563 -0.2827582629890646 -0.07392534515303492 0.14629195428650055 0.8351912302416745 -0.9426654582530203
-0.9873202870905617 1.0742592633405774 0.5662855717251957 -0.3130129368191301 -0.6377407253356302 -0.534328741631268 -0.27897905798950623 0.29833947980196074
0.9057839611585203 -0.9489667605127051 0.46635237307094163 -0.5964925214640127 1.032775594922063 0.09755181099148229 -0.8130396069476803 -0.9240414458282765
-0.18986012880617528 0.44199155198368356 0.4964833218128915 -0.7669658790385565 -0.88644900968304 -0.5378504874034231 0.016008499005971746 0.09101790114914698
-0.2664910540364688 -0.7170480158996307 -0.8900677658696792 -0.8783596489244128 -0.16412489333587993 -0.06377261069313353 -0.6559996004713925 0.23649578007534275
-0.6951780117190983 -0.2494676959631978 0.7809768276374753 -0.6593131455477417 -0.5591658284214404 -0.06939552187506925 -0.42977224454949314 -0.5758579333963306
0.9273668027042468 0.8472555454360722 -0.9386813396604023 0.1365568741028979 -0.05201097824053898 0.08786880974789857 0.9283726386331353 -0.1209147782820599
-0.4479909907866346 -0.6119927788037296 0.7005493844753083 0.5080938445791344 -0.9067837844912444 -0.12102984976120393 -0.6792942356028931 0.541828089805737
0.8117762717240596 0.02385936082259993 0.19886719728791136 -0.25221722269390917 0.5663151387935336 0.3500133038048956 0.9545611641059917 -0.6586397336731413
-0.7022550312454345 0.24759264981314333 -0.8240063064282228 1.0367210075014488 0.8209818096159229 -0.8417123974748604 0.530051480888317 0.8665440064400458
-0.34987163489966266 -0.040054125863185824 -0.07280107870294407 -0.5123022287013271 -0.7670278903355993 0.6062807018465772 0.6544643179026729 0.42481006257822584
0.02576429822425509 0.6692926317482479 0.29780107831 0.10682289472024875 0.31040551505204106 -0.37398247797870576 -0.8863244363014098 -1.1520346432456519
-0.7091013139232408 0.3178368164610997 -0.3319982981579877 0.5064245164113305 0.3116923083684751 0.8447204773441402 0.8098785547191332 -0.7670058099045247
-0.711324423121974 -0.17581449476778355 0.9011995668155253 -0.18907400163744134 0.7466603390160831 -0.5875897463119787 -0.96072820596273 0.34948982089297165
0.009394617101184985 -0.37194133023848636 -0.9894478053786017 0.17247170648680493 1.135255907218295 0.24653827192738642 -0.12148737639963561 -0.1872354280120999
0.7757966483117648 0.4899419659689124 0.9859448749260025 -0.5694119677256364 0.8935501990601242 -0.6674589316997992 0.32704530772810547 -0.6694847588072426
-0.7942175354093555 0.09004794305213545 0.019040552769153063 -0.5095424161450243 0.5462622648525428 -0.25644864592863065 -0.5227548986819255 0.09223756039849314
-0.13030811273548953 0.8884823559004149 -0.04759131046143225 -0.040348870848645024 0.18147217704561378 -0.1792312828437555 0.7887918350254159 -0.84169176284612
0.9962327757868801 -0.9902638320973192 0.7375410734706322 -0.39748822103148684 0.07293418523797077 -0.59546328097713 -0.42874548912580607 0.9429884276485125
00000000: 35dd a39f 6fcd ddbf 0732 3f3a 4b2a e7bf
00000010: 559f 98af e644 d0bf e80a a0f1 463f ec3f
00000020: e660 c4ee 424d d6bf 815a 0b24 ee24 db3f
00000030: 38c7 7425 e306 dfbf a4ef 0eea 5d4c e63f
00000040: 62b8 99de 7967 bd3f d8e2 ad2d 2b3f 8fbf
00000050: 6be3 7d5d ff0e f3bf fcb9 f0ae 8b67 ebbf
00000060: 23e0 7c8b d220 e7bf fd8d 6909 9a25 f03f
00000070: 9d56 1aea be3f ca3f e400 2627 e1dc a8bf
00000080: 8619 f3d3 fac1 e93f 653d c756 a8ef db3f
00000090: 63fd 0dd1 71d4 e3bf b2a6 b916 790d ef3f
000000a0: 1043 be14 fabb d43f 00d8 9e46 3c1b afbf
000000b0: 92da 5063 aca7 de3f 0276 abb3 0e0f e73f
000000c0: c60d 7710 9f26 ec3f 0769 756d 7d6e d3bf
000000d0: 9af6 51d9 dc39 d63f 8082 eaaa 65ce c0bf
000000e0: 84fa 9b7b d2d9 ed3f be36 6add d532 efbf
000000f0: ba13 0353 1853 9ebf 61d5 8bfd d91f efbf
00000100: de5b dd33 6f80 c93f e454 f7c9 6638 e9bf
00000110: e4bd 1a9b 2432 e43f 783e abdb c317 e0bf
00000120: 1f2d 0c43 2187 cdbf cc1b 39b8 cce3 c93f
00000130: 7b9f 5ec7 bc06 e03f 1a13 5425 9357 d23f
00000140: 342f 9050 5919 c1bf fc36 800a e2b5 e13f
00000150: 6855 438e 3cd0 e63f 1f1c fceb 8f3f db3f
00000160: ce34 906f 0b34 e6bf 4276 f369 f45c c4bf
00000170: 3738 5a7a fdc3 e33f ea40 e649 cd30 edbf
00000180: ae72 4128 b299 d13f 2f97 e584 57fe e93f
00000190: 7608 82f6 76d4 ea3f 9879 c1b8 4f7e d7bf
000001a0: 176b 98ca 2b3d e93f 38d0 2c18 4daf 943f
000001b0: fdd1 c870 6c13 c83f f4e1 4e24 de87 d83f
000001c0: d62c 5630 8156 b33f 676d 268a c22c f03f
000001d0: 0699 be96 47ee a1bf b0b2 e0ff 426b d8bf
000001e0: bc53 f34f dc38 c6bf 1c34 5ad9 24ad d8bf
000001f0: 3da5 cd6d ac29 c2bf 673a 6a01 f3f3 ed3f
00000200: fee9 56b9 4514 df3f 3552 784b 02de b8bf
00000210: 8a93 eb37 aab3 ee3f 4d0a b55d 7703 c7bf
00000220: 270e ed34 4b3d d4bf 04a6 1029 96f7 e93f
00000230: 84a7 619d a6a0 ee3f 927e 410d 456b ecbf
00000240: cc8e 24a2 14ce ee3f 66e4 5eff d81d e23f
00000250: e92b 1fe0 4a1d d03f 7872 0999 c335 e93f
00000260: ba29 faec 6541 da3f 16db 7acc 3071 e2bf
00000270: dc7e 3474 3e7e efbf 5f6d 73e2 534d eabf
00000280: 244b 83a9 a205 df3f 0114 f549 affc e0bf
00000290: 009c f645 9b8b 7d3f 8fac 2fef 0ac7 e2bf
000002a0: 1b51 1b53 5d48 e7bf e274 3fca 0661 c43f
000002b0: 7d63 7de1 a20c e4bf a61e 92bc 0e5e b8bf
000002c0: d070 2495 e0af a93f 081d deb8 a99e cdbf
000002d0: 8459 459c 0a42 dfbf fc33 a6dd 597e a53f
000002e0: b447 6619 4601 e03f e184 4865 c810 ee3f
000002f0: 4c12 0427 5785 e6bf 369c fc64 c312 e53f
00000300: 74b1 ae4f cfce c43f b0c9 79e2 7ee0 ea3f
00000310: 8849 cd55 50d2 dabf 1029 c0d5 928d e9bf
00000320: b74b 76ab f24c ebbf 4cf3 7b16 db53 edbf
00000330: 6f6d 76f2 f5db e33f 64fa 9462 5040 e9bf
00000340: 3021 495c c32d ca3f 9851 06b7 888a debf
00000350: 58fc 4b78 5a50 b3bf 208e 0d1d b618 d2bf
00000360: b61d c77b c5ec b2bf 8c0a aadb b1b9 c23f
00000370: 6f68 79f5 e2b9 ea3f 987f 48c0 502a eebf
00000380: c266 f7b6 2098 efbf b890 377b 2a30 f13f
00000390: 3f34 58eb 021f e23f ac3c b769 6708 d4bf
000003a0: 6c9a d43c 5f68 e4bf e9cf d396 3819 e1bf
000003b0: 415d 95fa cada d1bf 88b9 3679 fe17 d33f
000003c0: 8859 4da5 2efc ec3f 8b94 2c8a ef5d eebf
000003d0: 9d1b b09f b7d8 dd3f 6ee3 ff7b 7716 e3bf
000003e0: 59c1 c4b3 3f86 f03f cbbd dfcd 27f9 b83f
000003f0: e72c 46a3 6b04 eabf 6164 bf5d bf91 edbf
00000400: 2bb8 0432 564d c8bf 8234 38ef 9649 dc3f
00000410: 3188 8cfb 61c6 df3f b0ca f306 fc8a e8bf
00000420: b820 4550 ca5d ecbf b021 b139 1236 e1bf
00000430: d439 c12e 8864 903f f040 c9fc f24c b73f
00000440: 4ed8 707e 300e d1bf 556b 3eae 0ef2 e6bf
00000450: 324a 3465 6f7b ecbf 6234 c8b1 851b ecbf
00000460: da25 ab64 0b02 c5bf 7ebb 4edd 6653 b0bf
00000470: 9bd6 c6df f2fd e4bf c365 8864 7e45 ce3f
00000480: 2b6b 27f5 e53e e6bf 0e03 c9b5 8eee cfbf
00000490: 8c60 b41d c3fd e83f fe69 bee1 1719 e5bf
000004a0: f38b 43bc afe4 e1bf f038 f1a8 e7c3 b1bf
000004b0: bc63 c471 6381 dbbf 558a e29d 6d6d e2bf
000004c0: ac58 2025 fdac ed3f 1215 60a9 b71c eb3f
000004d0: e49e e672 ad09 eebf 9670 2816 b27a c13f
000004e0: 4af4 26d5 2ea1 aabf d0a6 3400 927e b63f
000004f0: 01c7 2d89 3ab5 ed3f f214 535a 45f4 bebf
00000500: ec32 9567 e2ab dcbf ae34 4be1 7195 e3bf
00000510: 7abd f18a e66a e63f 7185 b805 4e42 e03f
00000520: 31db 5d6d 5f04 edbf 126d 90ee cffb bebf
00000530: e7d2 c843 c7bc e5bf 22a2 b8dc a756 e13f
00000540: 1b28 573b 12fa e93f d001 bf99 966e 983f
00000550: 24a4 4cf6 7a74 c93f 9b54 bdb4 5324 d0bf
00000560: 3922 0bed 401f e23f b071 4033 9e66 d63f
00000570: d6bd bbda c38b ee3f 041d 7fa2 9313 e5bf
00000580: b6d1 148b df78 e6bf 10b6 d6ae 1db1 cf3f
00000590: b6d2 3979 425e eabf e2b7 64c4 6896 f03f
000005a0: 4429 dda4 7b45 ea3f 585a 79d6 4eef eabf
000005b0: f892 f385 2ef6 e03f ce8d 067f baba eb3f
000005c0: 6c4b 6cff 4b64 d6bf d4f3 4d71 f981 a4bf
000005d0: d185 246c 17a3 b2bf 6715 bea4 c764 e0bf
000005e0: 8d8f 0313 7e8b e8bf 3010 54c9 a666 e33f
000005f0: 474f 3927 5ff1 e43f 9c40 728b 1630 db3f
00000600: 643a 1cc9 f461 9a3f f8ff 9961 d86a e53f
00000610: e084 0341 2c0f d33f e09a 49c7 be58 bb3f
00000620: 1c61 e917 afdd d33f 6884 0c34 54ef d7bf
00000630: 14ed 7110 c55c ecbf ec95 c9e0 bb6e f2bf
00000640: f93a 1b3d f5b0 e6bf 4592 0a3b 7057 d43f
00000650: 41a3 3aca 753f d5bf 0f23 fc2f a134 e03f
00000660: c9de b64b c4f2 d33f 038c 0e3d f307 eb3f
00000670: 7803 486e 86ea e93f be38 acc4 4f8b e8bf
00000680: 4ef5 c46f 2bc3 e6bf d05e 98e0 1681 c6bf
00000690: a88b 5479 a0d6 ec3f ab40 c7ae 9333 c8bf
000006a0: 506b 2939 a4e4 e73f 0fff fb02 89cd e2bf
000006b0: b88c 1e14 49be eebf 224b c18d 0a5e d63f
000006c0: 980c aa29 7c3d 833f 17ec 5902 e3cd d7bf
000006d0: f366 a671 8ea9 efbf 424e 6c89 8d13 c63f
000006e0: 847e 2119 022a f23f 3cfb 91eb 908e cf3f
000006f0: 2266 83f4 cb19 bfbf c475 fb9b 54f7 c7bf
00000700: df0d 1b7e 53d3 e83f 2890 318c 355b df3f
00000710: 66e9 2e44 dc8c ef3f caa4 6a72 9f38 e2bf
00000720: 5085 4996 f697 ec3f 0a5c 62d5 d25b e5bf
00000730: 7428 4071 4fee d43f f8eb 074d 6b6c e5bf
00000740: dec5 8fe4 3a6a e9bf 4e22 7bca 610d b73f
00000750: 80dd c3dd 5d7f 933f 0391 a8e5 2b4e e0bf
00000760: f693 5200 fb7a e13f 257c d794 a769 d0bf
00000770: 8a34 357b 68ba e0bf 95d5 5f79 e19c b73f
00000780: ba1b 4dad efad c0bf 424a b58c 726e ec3f
00000790: 7ce2 0264 e35d a8bf 406f 7371 9ba8 a4bf
000007a0: 17bd c5f4 7a3a c73f 8af5 1df9 0cf1 c6bf
000007b0: d226 d95f c83d e93f d492 5790 23ef eabf
000007c0: 88a7 e68e 23e1 ef3f bca0 a8c6 3db0 efbf
000007d0: 4e6b c0bc ef99 e73f 7607 786f 7270 d9bf
000007e0: 7e84 5b94 d0ab b23f 0f80 b802 090e e3bf
000007f0: 4595 86eb 9070 dbbf e637 2811 f62c ee3f

feature_extractor.3.bias f8 [16]
0.24282049831951613 -0.4992470331090707 0.6740544341794623 0.6522666494713787 -0.7351419459626092 -0.9949692354616709 0.13794185398764314 -0.10767669221933128
0.8593538717045396 0.5987954516432912 0.28238001726451223 -0.018527213241778653 -0.31364604385472994 -0.8582072485608083 -0.3082056235751343 0.9126737927818179
00000000: d855 8af9 bd14 cf3f f205 f5d3 a9f3 dfbf
00000010: 52c9 d09a da91 e53f be08 f84e 5edf e43f
00000020: 7878 fa66 4886 e7bf 21b0 dab8 c9d6 efbf
00000030: 4832 d023 14a8 c13f bf9c 9f1f b390 bbbf
00000040: eb2e d5b0 d37f eb3f c4a5 3914 5529 e33f
00000050: ce7a cca2 8312 d23f 047c d63b ccf8 92bf
00000060: e00d 38db c612 d4bf 3648 380c 6f76 ebbf
00000070: 09b4 6c14 a4b9 d3bf 0941 7dab 9f34 ed3f

feature_extractor.6.weight f8 [120, 16, 5, 5]
-0.7827073748708415 0.8004826253358991 -0.7597053748423456 -0.4366448800493147 0.7994999613882647 -0.535553132879888 0.2870912552278642 -0.5190457991930874
-0.5112734936282068 -0.12453716797556075 -0.5662659222969415 0.517525860436707 0.6961300043159195 0.31765663222671925 0.5706072643018218 0.1795175221663865
0.3784461548523018 0.5543302233933498 0.826856251221366 0.03610279579992691 -0.4670669017075037 0.5610031073827778 0.39061876425294834 1.0683363725288286
-0.6846586274620952 -0.7358604457920743 -0.11479959167308557 -0.963308332728974 -0.40684413628384064 -0.25972271114939616 0.7372235957628802 -0.2710690626057026
0.13989059753552782 -0.7132208809099704 1.0956287094593837 0.3153251490129849 -0.21346799470102573 0.7730716844441972 0.5958973730558592 0.5687449914862539
-0.4972576508545692 -0.3168032694323395 -0.051260413568104124 -1.0138695187083777 -0.32765189641582554 0.9556864031797765 -0.5948907348384442 0.36291016067645154
0.38773267270320905 0.8666777218272687 0.2856558569579144 0.3056654777195491 0.11989571074295391 -0.5342665742166258 -0.3543855490761427 0.3020255590518132
0.6675604945887428 0.23941297141274964 0.6200994594819068 -0.9183285454689377 -0.6211136886087885 -0.7787893910326447 -0.9383334054397748 -0.5720614636993083
0.3392634199349961 0.5646979938280694 -0.4143380949079828 -0.3223065869259487 -0.674623355366905 0.1848710553366483 1.0425478955240814 0.42766327837905277
-0.7899416705861274 -0.9646538647838439 0.09055340021103053 0.971408999808391 0.4238327965182316 0.6721365829282928 -0.7425591861109585 -0.22860717629117372
-0.8197405187817902 0.790868081236591 0.08828721416784438 -0.41357749001940897 0.4206512481137901 0.6305975188768093 0.929451456214658 -0.6642899920574867
-1.0208872827990443 0.26051389445564427 0.9401228839618937 0.8257218920219311 -0.9415623186418574 -0.6849327672617831 0.8927556982172806 -0.1677792825512842
-0.5111877071072894 0.5421594688291927 0.22779132637247465 0.5138967515220767 -0.8041687413842984 0.8771090608251202 -0.7526592575020882 -0.9866385556934896
0.3093319128195005 -0.49792229876850647 -0.2937502302354992 -1.114890808841973 0.38331120444295896 0.7857812528180146 -0.3045820076078141 0.8466108714194069
-0.18501503501022862 -0.14060984265627155 -1.1205448093064458 -0.18355162354866958 -0.39522095940121843 0.8897891948368811 0.7093493249955763 0.7617494975051371
0.4010503299387846 0.3370219556218828 -0.5490673895573074 0.4321935856024039 0.3488471584889177 0.04044401080174337 -0.3474669389937822 -1.0188022627172564
0.5499444936955357 0.9907522381552933 0.2376294410890269 -0.9264094806635881 0.20923229275069843 0.8645129122815713 -0.8361486235094755 -0.8560504634463734
0.9074014495645945 0.46761097015066966 -0.6883507862974071 -0.6872827401673517 0.6965133479070507 -0.6971795743737647 -0.35243639833575613 -0.476490380316154
-0.6797113241359494 0.9023784887507011 -0.2767107347283575 0.30323738383932863 0.2576820623825142 0.4959607674735276 -0.1475833269951391 0.35087319754954166
-0.06586229851600622 0.7096623482391553 -0.2601341489824497 -0.5440809014195079 -0.6184409890098062 -0.8514309407605202 -0.5760379785505306 0.9550214282149262
0.39325054527243475 0.20315812178569145 -0.7759230181394378 -0.8360566527888643 -0.024801522384016297 0.7527728815455174 -0.14476212185119014 -0.9707610896473339
0.8466718460273037 0.93483222745284 0.8168467443451012 -0.6559456925022504 0.7068819114971938 0.20524162533225068 -0.7725031487526164 0.06009034131895036
0.6663879265900039 -0.2516964912065677 0.25102916155859245 -0.049115382005816915 0.5846111359482173 -0.986184723555116 -0.39061606111707353 -0.5837130895176589
-0.5647554144307252 -0.7097742696265136 -0.5260970907702597 -1.0165975443195832 0.9387924567479131 0.9141386110246923 -0.27532530052205484 0.37581479863344747
-0.8977535699214934 0.6547396843490575 0.368843987511448 0.5721690377979519 0.11189782601305796 -0.2174411570363144 0.9234376031053106 -0.9718139613562664
-0.4843758081854702 0.558192850243217 -0.4253007912485663 0.35579344186538836 -0.3427922356849496 -0.9096175703223202 -1.0451489293103062 -0.052667661604797356
-0.7725194556015375 0.7080934750758358 -0.14326892938726746 0.9080034381986679 -0.5322758798957172 -0.7967442843568865 0.2031985200106886 0.5148398446218387
0.35488579048681035 -0.8374410229180493 0.6375601614254808 0.5538501656423378 -0.35369925890632814 0.7065785473385657 -0.4357635005194124 0.6129844222712509
-0.6378168933002566 0.775698331837017 0.39133456138491596 -0.652297358118433 -0.5236672765951401 0.08090034269162713 -0.07712297846295016 -0.6261978079363795
0.8251479263035449 0.4807016976454381 -0.38334594523935317 0.30537590041563806 0.4788071907573348 0.17579380175135922 0.070142655607382 0.826689108411454
0.24182088441538135 0.014429488638748517 0.34731087708526154 -0.3452756534841265 0.5988051308631117 0.1857091503689749 0.7638992750317314 -0.09869794702330026
0.6370539387459588 -0.32978242519429835 -0.7979862291401139 0.2822627729267664 -1.0186840576763672 -0.7304902839640113 -0.6712950069636642 0.8797990921442488
00000000: 9a10 2d56 f00b e9bf 5faf 1abd 8d9d e93f
00000010: ad62 71a5 814f e8bf 02c5 f15d fdf1 dbbf
00000020: 861b 6af1 8095 e93f aba9 df52 4023 e1bf
00000030: 05f6 0a00 b45f d23f c322 95ef 059c e0bf
00000040: e83b ce3a 5a5c e0bf 046c 97f7 aae1 bfbf
00000050: 3859 23b6 d91e e2bf 0a1e ad64 928f e03f
00000060: 8aa3 496e b246 e63f 4e5c b17b 7c54 d43f
00000070: ce29 612a 6a42 e23f 28bd 611f 6efa c63f
00000080: 3ece 9838 7638 d83f fc14 95bc 12bd e13f
00000090: 4aa5 af3d 9b75 ea3f fe7b 82ce 107c a23f
000000a0: 772d f892 6ce4 ddbf a13a e5c9 bcf3 e13f
000000b0: f7e6 6ad8 e5ff d83f ac37 52e1 e717 f13f
000000c0: 5ef7 bb35 b9e8 e5bf 221a a334 2b8c e7bf
000000d0: 947e d48b 8163 bdbf 9a20 21ff 6bd3 eebf
000000e0: 4024 fafc bb09 dabf 2e91 9a01 4c9f d0bf
000000f0: d983 34f0 5597 e73f e053 b60d 3259 d1bf
00000100: 396c b762 efe7 c13f efa4 ca98 b4d2 e6bf
00000110: e2fc 3af8 b187 f13f 847e a788 492e d43f
00000120: d4e6 fd53 eb52 cbbf c0d8 44d4 00bd e83f
00000130: e282 215e 9711 e33f f24f 46b2 2833 e23f
00000140: 58cb 06c1 11d3 dfbf dc93 5e38 8146 d4bf
00000150: 6879 b50f ce3e aabf 4a38 943e cf38 f0bf
00000160: b103 e5a8 3ff8 d4bf c672 dca6 fb94 ee3f
00000170: 8462 5a4b 5809 e3bf 2874 df89 eb39 d73f
00000180: 0b76 36b3 9cd0 d83f db6f edea d2bb eb3f
00000190: dce2 e280 2f48 d23f 6896 94ef 0590 d33f
000001a0: 8058 923c 7cb1 be3f 5767 f336 b618 e1bf
000001b0: 1440 ddb9 40ae d6bf ffc0 ab02 6354 d33f
000001c0: 0c87 8bd3 a75c e53f 545c 3a91 15a5 ce3f
000001d0: 03bf 57d2 dad7 e33f fbb6 b88b f262 edbf
000001e0: 8c86 75d0 29e0 e3bf 749f 9eba d7eb e8bf
000001f0: e575 23c7 d306 eebf 537e bcd7 534e e2bf
00000200: 2265 56eb 7db6 d53f c077 f386 0112 e23f
00000210: 8278 c7ed 8384 dabf 1c78 88ce aba0 d4bf
00000220: 8665 0db8 8396 e5bf bdee 52d0 daa9 c73f
00000230: 04a2 bcb3 46ae f03f aba4 95cc d55e db3f
00000240: dd47 1dc1 3347 e9bf 989c 26c8 71de eebf
00000250: 88ae 72f4 812e b73f 90f2 a653 c815 ef3f
00000260: 5c27 0198 1320 db3f 24e9 4394 2482 e53f
00000270: 371c 767b 0bc3 e7bf 7a97 e6fc ff42 cdbf
00000280: aff6 eb77 503b eabf d590 0b94 ca4e e93f
00000290: b27e 81a9 fd99 b63f 2db0 7fb8 0d78 dabf
000002a0: 5de6 6a36 f3eb da3f eb77 10d9 da2d e43f
000002b0: 452b f5fa 10be ed3f de4d de15 dd41 e5bf
000002c0: 1e63 48e7 8d55 f0bf 31cc 3578 42ac d03f
000002d0: 19cd 1a96 7c15 ee3f fc69 3a51 506c ea3f
000002e0: 82ce b64c 4721 eebf f223 6b1f f8ea e5bf
000002f0: d025 e565 7491 ec3f a586 c0a1 ca79 c5bf
00000300: be93 8452 a65b e0bf d5d1 7ad0 5e59 e13f
00000310: df86 8a24 4428 cd3f cada a999 d771 e03f
00000320: dec0 9615 c0bb e9bf 029d 6805 4711 ec3f
00000330: 7d19 00de c815 e8bf 88a3 3505 8b92 efbf
00000340: e5ce 4a14 18cc d33f 6a3b 4a7d f5dd dfbf
00000350: be73 03c4 cdcc d2bf 6c65 a9be 97d6 f1bf
00000360: d876 d1b7 2b88 d83f 9839 d5b9 1e25 e93f
00000370: 9509 6888 457e d3bf b8e6 a5ae 6f17 eb3f
00000380: a790 519a 92ae c7bf 8529 dad9 80ff c1bf
00000390: a5c7 da64 c0ed f1bf 6f76 229e 9e7e c7bf
000003a0: 459b d4d9 4c4b d9bf 0f13 8530 2779 ec3f
000003b0: 2d76 095b fdb2 e63f 8ced 707b 4060 e83f
000003c0: 13c6 c800 cfaa d93f 4d84 5b89 c491 d53f
000003d0: f95b 2ec6 f591 e1bf e302 ed48 0fa9 db3f
000003e0: a8cb 4008 8353 d63f 78d4 6ccf 13b5 a43f
000003f0: 72d9 daf8 e53c d6bf f661 f799 034d f0bf
00000400: 0d34 e131 2599 e13f f01a aa09 3eb4 ef3f
00000410: 06a6 053b a46a ce3f 4cf1 c47e 25a5 edbf
00000420: 00d0 50af 1fc8 ca3f 9602 a7fb 16aa eb3f
00000430: 1632 12c2 bac1 eabf 474a 07f1 c364 ebbf
00000440: 3722 c7c3 6e09 ed3f c011 0390 56ed dd3f
00000450: 0d58 6a3a f806 e6bf 25f8 835f 38fe e5bf
00000460: c49f 4f5c d649 e63f 0ffc eb89 4b4f e6bf
00000470: 1c6a 3165 518e d6bf 4441 1482 d17e debf
00000480: f04f 7cf6 31c0 e5bf 928a 39da 48e0 ec3f
00000490: 3c11 07f1 a0b5 d1bf d2ed a0c5 3d68 d33f
000004a0: ffb7 ace7 dc7d d03f 9076 193b d2bd df3f
000004b0: f482 70ad 02e4 c2bf a92a 21db b474 d63f
000004c0: 2067 2a02 5adc b0bf b678 1cd0 8db5 e63f
000004d0: 56f4 9cb3 09a6 d0bf 1733 bf59 1c69 e1bf
000004e0: 48b2 c9c1 44ca e3bf 6bce ab19 ec3e ebbf
000004f0: 7f1c e432 e76e e2bf b931 2519 898f ee3f
00000500: d612 c555 042b d93f 0f40 7ed8 1501 ca3f
00000510: 85eb 6382 5cd4 e8bf d39a aae1 f9c0 eabf
00000520: 3417 1ffe 9165 99bf bdb7 7127 b716 e83f
00000530: 7274 86b1 9087 c2bf cb77 888f 7910 efbf
00000540: ee32 248e ef17 eb3f 5a04 8546 25ea ed3f
00000550: 11cd 99c8 9b23 ea3f c2f9 27d2 81fd e4bf
00000560: 1476 80d0 c69e e63f 393a 4a8a 5b45 ca3f
00000570: 6462 fe85 58b8 e8bf d86d 8a45 29c4 ae3f
00000580: f6e7 e4c5 0c53 e53f 9e02 9099 cb1b d0bf
00000590: 1422 cf9d dc10 d03f 941c e4be a625 a9bf
000005a0: d4cc b869 22b5 e23f 207d ef43 d38e efbf
000005b0: 1d92 f281 daff d8bf 0337 b712 c7ad e2bf
000005c0: 2801 67f2 7912 e2bf 39d2 7287 78b6 e6bf
000005d0: d720 ec90 c9d5 e0bf 8cbe 60c9 fb43 f0bf
000005e0: 4cd7 6e7a 960a ee3f d694 cb9d 9f40 ed3f
000005f0: f03a 6002 ee9e d1bf 60f1 5e83 590d d83f
00000600: 14c3 d5b1 65ba ecbf a785 75a3 a0f3 e43f
00000610: 9406 eccf 239b d73f 1f08 2471 354f e23f
00000620: 8736 38ff 55a5 bc3f 583f 23a1 1cd5 cbbf
00000630: 6a7c 2704 cd8c ed3f ae48 ba97 1919 efbf
00000640: 9a54 c863 0300 dfbf 06fb 9440 b7dc e13f
00000650: 7108 58cf 2038 dbbf 155c 3cdb 51c5 d63f
00000660: b9bb 65d8 4ef0 d5bf d2d7 8c4e 961b edbf
00000670: 1865 6d15 eeb8 f0bf 187e 4c78 41f7 aabf
00000680: 6da2 aab8 7ab8 e8bf 4bc6 bea5 b3a8 e63f
00000690: dd28 20e3 a256 c2bf b400 f739 5d0e ed3f
000006a0: 5e41 136d 6708 e1bf ddce 92de ed7e e9bf
000006b0: 2c50 05bb 6802 ca3f 3a83 ea68 9179 e03f
000006c0: 6c2e fde3 72b6 d63f bc60 b81d 51cc eabf
000006d0: e9c1 5191 e466 e43f 402d 8afb 23b9 e13f
000006e0: c0d0 6737 02a3 d6bf 7efa 1b9d 4a9c e63f
000006f0: e25d e197 8ce3 dbbf 6999 d381 919d e33f
00000700: 16f3 31f9 fe68 e4bf e2a7 d94e 85d2 e83f
00000710: 8055 bc1d a00b d93f 0c59 8cb5 9edf e4bf
00000720: b7c4 5ee0 e1c1 e0bf d681 1886 e2b5 b43f
00000730: 52bb 44de 54be b3bf 883c 3dfc cf09 e4bf
00000740: 0dc0 ba9f 9c67 ea3f 9f34 a10d d1c3 de3f
00000750: d6dc 766e bd88 d8bf d563 515c 478b d33f
00000760: dc1c 59ea c6a4 de3f c248 ae4a 6980 c63f
00000770: 6a67 e37b def4 b13f 60c5 92b7 3c74 ea3f
00000780: dae4 069b fcf3 ce3f 5053 692e 358d 8d3f
00000790: e014 a866 573a d63f 4270 f40d ff18 d6bf
000007a0: 767d b760 6929 e33f 768b b343 51c5 c73f
000007b0: 7361 76e4 dc71 e83f 00bd a5c6 4444 b9bf
000007c0: ce75 16f1 be62 e43f 3253 c0be 271b d5bf
000007d0: b815 9a6a 1a89 e9bf b051 a6e0 9710 d23f
000007e0: 40d3 8aa7 874c f0bf 527a f528 2d60 e7bf
000007f0: a110 9caa 3f7b e5bf d7eb f96c 5027 ec3f

feature_extractor.6.bias f8 [120]
-0.04630950838327408 -0.058954046060393325 0.0822748095780134 -0.02031498480647409 -0.049722851092577555 0.009433157742023468 0.12322328892971923 0.04471916517198893
-0.13581337395102133 0.015028858786562155 0.025800112634897232 0.13513975920394738 -0.040972312742186906 0.05672966771944493 0.008209402726528828 0.022918198075884265
-0.04416405524595661 0.008327989142944942 0.006678760051727295 -0.06118133999179495 -0.09078087912736305 0.11714246129805417 0.08669186516371322 0.17560485981960477
-0.06804551149765384 0.01940836681583233 0.12445912866107754 0.009472548961639404 -0.06681931530140424 0.0003875912704849743 0.02644253894686699 -0.00810253492502494
-0.17919941816486717 -0.061708571406092386 0.05466327338375673 0.005345926516737681 -0.014151516110626677 -0.016405971307290226 0.06834477830446853 -0.030671222979270163
-0.007973294705152512 -0.12665893942946604 -0.0642723964290307 0.10553169183887434 -0.05267572336003599 0.027563316654388867 -0.008102476596832275 0.010039941200467972
-0.07627809429788282 0.1719630510417808 -0.018458656241376714 -0.07855438838385861 -0.02992895563338724 -0.02634880290935998 -0.003560595214366913 0.06857610752697431
0.05329302429174354 -0.12098387419801984 -0.046404843973641974 -0.13940042596643837 -0.10657895756846582 0.0672616142340038 -0.04755328345212498 0.04773368003649715
0.07411130652675205 0.004627906202411242 -0.009737085649279859 -0.08732274649253194 0.041627053171396255 0.015264485031366348 0.028622512857755557 -0.11414606259512353
0.10570709298640033 -0.04993511326891306 0.07172320931716145 0.2270871418822309 0.16171297948064717 -0.03079196810722351 -0.08148434246208261 -0.11328692336863175
-0.07876540907897131 0.12853908392943542 -0.10812387365860862 -0.011380871953803134 0.19369701426486713 -0.030231291196483517 -0.017820692305789892 -0.011932406940109663
0.08525962671752615 -0.04152292148775686 -0.07443384320395172 -0.007001186407519594 0.048479274178102646 0.048786572633525566 -0.01307661086320877 -0.07093592247114659
0.01707072803280625 -0.0900805353600389 0.06578975861208639 -0.04186677578498421 0.059432136002139105 0.22671791958159104 0.08278303474544924 0.04629591479897499
0.003878199690632328 0.000811780039840837 -0.0697156945519351 0.0724675881768677 0.04919013753533363 -0.039685203695181095 -0.034534235831103335 -0.21207025318601283
-0.08970835278157577 0.1099389703321148 -0.019304181404796547 0.1541126200811209 -0.09426064404876992 -0.020219259353853783 0.13174017081688863 0.048300568014383316
00000000: 0000 0040 e1b5 a7bf 4eb0 9787 392f aebf
00000010: fb14 6c40 f60f b53f 803e 738d 73cd 94bf
00000020: 5eed 9c06 4675 a9bf 0000 0000 b151 833f
00000030: 2807 0fbc 8f8b bf3f 2013 d62f 6ee5 a63f
00000040: ac51 bd27 5562 c1bf 903a e047 73c7 8e3f
00000050: 0000 0040 586b 9a3f 60cb 1577 424c c13f
00000060: 8cd1 89ae 52fa a4bf 08cc 22c7 ab0b ad3f
00000070: c850 d761 17d0 803f e66e e03c de77 973f
00000080: 8657 e1c9 ab9c a6bf 3048 15c8 430e 813f
00000090: 0000 0000 305b 7b3f 6cca c71c 2953 afbf
000000a0: 6443 f46a 6a3d b7bf b882 3f60 0cfd bd3f
000000b0: 8217 b525 7031 b63f a2d0 f854 387a c63f
000000c0: caa2 853e 6e6b b1bf 1899 f872 c9df 933f
000000d0: 57b9 49af 8ddc bf3f 0000 0000 5866 833f
000000e0: bdec f515 121b b1bf 0003 b9d4 b366 393f
000000f0: 0000 00c0 c013 9b3f 6035 24d4 0f98 80bf
00000100: 8c7b 3dac 01f0 c6bf 6ae3 2410 4498 afbf
00000110: 4c7a f316 d3fc ab3f e039 e638 9ce5 753f
00000120: f058 1257 78fb 8cbf d44c e518 bacc 90bf
00000130: 3a89 ab1b 0b7f b13f a045 7fee 4668 9fbf
00000140: 0000 0080 4d54 80bf ac3c 4c31 5c36 c0bf
00000150: 77bf b2e0 2774 b0bf 48b7 23fd 1f04 bb3f
00000160: 2dbe 3ffa 4ff8 aabf 2c4a 66de 8e39 9c3f
00000170: 0000 0000 0898 80bf a0d0 e018 d28f 843f
00000180: ca1d 6910 f686 b3bf 4d23 2ca0 e202 c63f
00000190: 100e 8a73 d3e6 92bf 6ee2 10f1 231c b4bf
000001a0: b867 9836 b2a5 9ebf 1047 233b 2efb 9abf
000001b0: 0000 0000 1c2b 6dbf 8986 1d2b 348e b13f
000001c0: e03d e028 3949 ab3f 921c 0697 ccf8 bebf
000001d0: 004d 7c2e 60c2 a7bf 6283 4987 dfd7 c1bf
000001e0: e9c5 3231 c248 bbbf 5945 69a1 0e38 b13f
000001f0: 3414 7d6a e758 a8bf e255 5985 8c70 a83f
00000200: d2d5 cb65 f5f8 b23f e0ec 9c1c b6f4 723f
00000210: b045 6083 09f1 83bf f2df 6194 c85a b6bf
00000220: 0000 0020 2450 a53f 0000 0080 fc42 8f3f
00000230: ca14 9d52 384f 9d3f 7a2f d025 ad38 bdbf
00000240: 2ef2 54bb 9e0f bb3f 8cf6 d25c 1891 a9bf
00000250: 86a1 61c6 735c b23f 30f7 dc03 3111 cd3f
00000260: faa2 1acb 02b3 c43f 0000 0000 ee87 9fbf
00000270: d2bd 026a 28dc b4bf 7ec7 ee2e 5f00 bdbf
00000280: bedc 0c48 f829 b4bf 720b defc f773 c03f
00000290: c6d2 4795 01ae bbbf 907d bbc6 da4e 87bf
000002a0: 8adb cc52 10cb c83f 08dd 049c f3f4 9ebf
000002b0: e8ef 946a 963f 92bf 800b 908c 0470 88bf
000002c0: e6c2 6b2c 93d3 b53f 8509 a60b 7e42 a5bf
000002d0: eecc 46aa 180e b3bf a0b8 74aa 46ad 7cbf
000002e0: e6ed 4182 46d2 a83f accc e3bb 8dfa a83f
000002f0: 0000 0000 e9c7 8abf e30a 204b db28 b2bf
00000300: 54b0 7a2a fd7a 913f 60a6 6099 840f b7bf
00000310: b290 a6fd 98d7 b03f 6029 92e1 8f6f a5bf
00000320: 4ad5 eb90 e36d ae3f 5c92 02c1 1705 cd3f
00000330: c034 e5da 4431 b53f 0000 0020 19b4 a73f
00000340: 4000 d69a 2cc5 6f3f 0030 805c b499 4a3f
00000350: 2455 1e44 e3d8 b1bf 3f59 3d61 3c8d b23f
00000360: 0000 0020 732f a93f 7a05 0378 9e51 a4bf
00000370: 3a50 f9aa 78ae a1bf f1b5 f138 1e25 cbbf
00000380: 5af9 5f69 20f7 b6bf 84e1 21da f524 bc3f
00000390: 8c15 3daf 79c4 93bf d71b 935b f6b9 c33f
000003a0: f346 7d2f 7721 b8bf d452 b286 5bb4 94bf
000003b0: c92e 9da6 dcdc c03f 0000 0020 daba a83f

classifier.0.weight f8 [84, 120]
0.04511168249426274 0.054975392626894964 0.016533250216801965 0.056037262082099915 0.07957608254550505 -0.04862754470061706 0.20696218993264162 0.03396303078584112
-0.03480216858889375 0.06439829146300288 -0.1087498077622012 0.10033961126140303 -0.1648227345045793 -0.05104849581057744 -0.09727548302194906 0.01053067200071485
-0.19364352317054728 -0.0324141188992637 0.024390379326278938 -0.09341821433141957 0.04551893140915382 0.0030345505432897435 0.16653349221774846 0.12338026884634132
0.03260572763109498 0.07588144903056832 -0.07322882115840912 0.0027930000445319514 -0.12074060439952417 -0.009347266118051006 -0.01712621949557884 0.3024492976848887
-0.10030153561082344 0.05676870048046112 0.029806172898580258 -0.08964707199510569 0.05971875061351618 0.11173399996438184 0.08826639211983195 -0.14477411801147116
-0.06907162243732176 -0.12422416448269064 0.16777297019387333 0.04296739380257962 0.020864281366048787 -0.12127295643600186 -0.0017733648419380188 0.0063363611698150635
-0.15647195659137875 -0.08792021870613098 -0.05580509238555488 0.09632904764916231 0.03893263638019562 0.014293459776367715 0.13144784322783298 -0.10192593789511235
0.058908828086333465 -0.14114938848396175 -0.09435547326097424 -0.0010637262144633577 0.0178234163822222 0.030733028550613592 -0.00998399212367286 0.1516860164289487
-0.05943707726456826 0.10718338848960751 -0.006377712985236664 -0.024514320678844 -0.18930962570132753 -0.07654095940998099 0.025340907195220787 9.253621101379395e-06
0.019168630742767576 -0.06618638336658478 0.06399821615354905 -0.03705935204126523 0.17865623850909962 0.026467178615849796 0.0879457464991218 0.01966171702652117
-0.17966883320511434 -0.10184458770790979 -0.005471449614016702 0.029213182628154755 -0.0793500812225742 0.08932161430606178 -0.08027079611395171 -0.22285120400530156
0.2091588704659409 -0.009497257146379057 0.02710068387680452 0.03683397173881531 0.03741168975830078 -0.0648338720202446 0.08687919802905839 0.08168266988988494
-0.08649464199170945 -0.16604399300193656 0.11008028575352052 -0.030714597553014755 -0.051363664883968 0.07218768499648798 0.15572689128167722 -0.10581488889575166
-0.10083820316871756 0.018672157219911084 -0.03681949933804256 -0.04074865060060101 0.10891152598982762 -0.09552498019840316 0.0003067891514469956 -0.12745774257054332
0.0386918586437074 -0.010800853002207067 -0.04344421980725399 -0.051772963255643845 0.005354902173466063 0.19582587043467437 0.20598496730771138 0.048819860778211197
-0.010235721651077029 -0.027402810563007668 -0.03841234379497288 0.048913310309284 0.05873089281740669 -0.06850062310695648 0.04047287251481385 -0.0728666837570553
-0.058658721997385574 -0.1590808149446894 -0.053303701494727546 -0.10493890891793439 0.12734354018020447 0.00447921565552363 0.05488327145576477 0.08647920865226205
0.1478090312111624 0.026577584445476532 -0.007352621705981804 0.04240385546728044 -0.185597170286309 0.04389891993856668 0.03461531027317451 0.07232658399255834
0.08564892279358778 0.0038497231012635663 -0.055032671177936615 -0.11808288515058456 -0.06611829530555224 -0.01538882043500503 0.038899975516545005 0.03442545807844288
-0.1721022953819022 0.013570271766308817 -0.03202080819509459 -0.0935758466365545 0.02271316290220926 0.13274054561825396 0.03290045848868929 -0.057511227090514955
-0.11809634666254376 0.013047304064900345 0.059312662193058585 -0.13520935911598958 0.09396893052933188 -0.0929723417703023 -0.06771233906390078 0.02321670478513929
0.015224011052320963 -0.06565266847610474 -0.06001525235936865 0.3186835871450015 0.07371789805245688 0.08513567844077634 0.10656634562963094 -0.055079789942057686
-0.0699533075094223 0.10885879819613743 -0.008182752260831538 0.11265310901379694 -0.12925040799737442 0.056712140715479045 0.028841648040831974 0.01427323984668706
0.04915466904640198 -0.12328938427888424 0.050516582481267336 0.004125561684461362 -0.004709087312221527 0.041189923882484436 0.028709888458251953 -0.013405274934782552
0.03248452566233959 0.10000744392804783 -0.08992158621549606 -0.14766159020667757 0.20310241598161488 -0.10005032178442166 0.02195896460207293 0.06889569759368896
0.0785028050103119 -0.03432344997212555 0.04352255724201051 0.0477701112690638 0.012982800602912903 0.06126318691434949 0.04327933490276337 0.0849221795797348
-0.0908971446792444 0.09154665865396033 0.014377347176230154 0.08613772400814537 0.10242556281835566 -0.029005538095002767 0.17313973048465034 0.018941415124852146
-0.040361047739053024 0.05004802258424328 -0.019239809656961815 -0.06323514878749847 0.04330970080069904 -0.026799327647181403 0.020650903851463426 0.01364981998651578
0.07316878652250441 0.007389463725090029 0.05541729803506276 0.012317018270059543 0.11796704083192819 0.047462090849876404 -0.1374402318980044 -0.019804234291158823
0.24145019536529416 0.06935382409411332 -0.047104664652092225 0.08530146412058515 0.14885933836472703 0.08569912441201608 -0.06774303808553013 0.17999035655412132
-0.04758832897572616 0.052288526092222426 0.05354821784290122 0.03789413733290041 0.010531745335531556 0.0661259068924428 -0.01748309546908853 0.19708920710267927
0.12377147870753899 -0.020286434209309354 0.02239684893975115 0.03684280020707695 0.14443076216207695 -0.31366940305089647 0.07673576613992608 -0.10075886484692953
00000000: 3af6 f5e1 e018 a73f dca4 d512 bc25 ac3f
00000010: 2037 e9a3 17ee 903f 0000 0080 eab0 ac3f
00000020: 46a5 1320 195f b43f 240d 59a4 b5e5 a8bf
00000030: 5576 a2ae bc7d ca3f d817 ff34 9a63 a13f
00000040: 629e d6ff 96d1 a1bf c67a c00b 687c b03f
00000050: e6f1 c803 07d7 bbbf b26f dc54 dbaf b93f
00000060: 8ccf 2a4f e918 c5bf 9c68 0848 0723 aabf
00000070: ed28 48ca 0be7 b8bf 28a6 c8de 1a91 853f
00000080: 96c3 8c9b 4fc9 c8bf 5eb5 3359 9598 a0bf
00000090: b871 2ca6 caf9 983f 6577 678f 41ea b7bf
000000a0: 0a9b 80e3 414e a73f 4079 edea e9db 683f
000000b0: 7bc7 612f f850 c53f 66ae aa6b d995 bf3f
000000c0: e8f8 acab b2b1 a03f 0c9a f575 f76c b33f
000000d0: 0000 00c0 1fbf b2bf c0ef 2a7b 58e1 663f
000000e0: 98fa 3133 dbe8 bebf b0b5 45d2 a824 83bf
000000f0: 8cee 8c22 8989 91bf 144e 904c 545b d33f
00000100: 90e3 2f87 5cad b9bf 0000 0080 c910 ad3f
00000110: a8f6 4567 8285 9e3f e0b0 664a 1cf3 b6bf
00000120: e2a1 afc1 7493 ae3f d1c2 b273 999a bc3f
00000130: 5497 7d53 a098 b63f 4e50 1553 f587 c2bf
00000140: 5e30 7387 adae b1bf 0c7a d3a3 27cd bfbf
00000150: 0a57 11ae 9579 c53f 5e55 5a7e d2ff a53f
00000160: a0a4 7c38 725d 953f 0628 c895 be0b bfbf
00000170: 0000 0000 080e 5dbf 0000 0000 28f4 793f
00000180: 8e8a 26e8 4507 c4bf 0000 0080 f081 b6bf
00000190: 2210 7e2d 7c92 acbf a2d7 4e3d 05a9 b83f
000001a0: 0000 0080 faee a33f 681e 4ab2 e345 8d3f
000001b0: 208a e56d 48d3 c03f 85a6 df79 d117 babf
000001c0: 8029 2744 4c29 ae3f 3ccb b1e3 2e11 c2bf
000001d0: a6bf da27 ae27 b8bf a0a5 6453 976d 51bf
000001e0: 46c9 db39 4d40 923f 8caf 20a2 7a78 9f3f
000001f0: 88d1 3cbd 7c72 84bf 4253 e987 726a c33f
00000200: a0d3 0a5e 896e aebf 78c1 3cdc 5e70 bb3f
00000210: d02b 1e4b 841f 7abf acac 6536 481a 99bf
00000220: 1644 9a3d 4c3b c8bf aa67 7835 3098 b3bf
00000230: aa26 9e7e f7f2 993f 0000 0000 0068 e33e
00000240: acde 9808 f1a0 933f 0000 0040 97f1 b0bf
00000250: bfbf 61e5 2f62 b03f 446e 0e82 71f9 a2bf
00000260: 1cbd cf26 35de c63f 6034 4a4a 361a 9b3f
00000270: 9139 09c9 9c83 b63f 38ce 727e 3322 943f
00000280: 26fc 5c69 63ff c6bf 45e6 7aa5 7c12 babf
00000290: 106e 7612 3b69 76bf 0000 0080 0fea 9d3f
000002a0: bc30 c973 4950 b4bf f03c 4504 c8dd b63f
000002b0: 6020 227c a08c b4bf f4da 8964 6386 ccbf
000002c0: eae5 28c6 b7c5 ca3f 4061 c346 4c73 83bf
000002d0: 9ce9 cc1b 48c0 9b3f 0000 0000 e7db a23f
000002e0: 0000 0000 a027 a33f 0000 00e0 f398 b0bf
000002f0: aecd 3c12 b73d b63f 91b7 d3cb 27e9 b43f
00000300: f234 a24a 8324 b6bf 36fe d1f7 ed40 c5bf
00000310: 8ce6 3ebb 382e bc3f 0000 00c0 a573 9fbf
00000320: aa39 c299 564c aabf a0de 3b62 e47a b23f
00000330: 7ace 94d8 dbee c33f 5ab4 3c3f af16 bbbf
00000340: 2c0b cc50 88d0 b9bf b8d0 6b42 cb1e 933f
00000350: 1623 0663 01da a2bf a815 5fd3 01dd a4bf
00000360: bca4 4832 a0e1 bb3f 6837 e739 5374 b8bf
00000370: 00a0 4a5f 111b 343f 3c32 fb09 8950 c0bf
00000380: 120b fe56 6bcf a33f a09b 4ef3 c11e 86bf
00000390: e076 8b1e 523e a6bf 0000 0060 fc81 aabf
000003a0: 3843 559b 05ef 753f f423 9d76 d210 c93f
000003b0: a6f1 0625 b75d ca3f ee18 e0b2 eafe a83f
000003c0: 504d f04d 77f6 84bf 6814 bf7c 7b0f 9cbf
000003d0: 6867 b960 c8aa a3bf 9c25 3c58 2a0b a93f
000003e0: 2acf d4bf f911 ae3f 0000 00c0 4189 b1bf
000003f0: 2811 a73f dcb8 a43f e05b b417 64a7 b2bf
00000400: e635 3519 8408 aebf 50e2 cd98 c25c c4bf
00000410: 64e8 596d 9f4a abbf 3c65 e1bd 46dd babf
00000420: c525 370a cb4c c03f 5008 094c cc58 723f
00000430: 0000 0000 a919 ac3f 6c07 f25c 8023 b63f
00000440: 487d 8d05 68eb c23f 0000 0080 2737 9b3f
00000450: e0d7 455c c81d 7ebf 929d e948 f5b5 a53f
00000460: 3e0f 4ee8 a5c1 c7bf 0486 ee52 eb79 a63f
00000470: dadb 2013 19b9 a13f aa22 e1b8 fe83 b23f
00000480: e509 567a 16ed b53f 60d4 315a 7489 6f3f
00000490: cc6d d705 3e2d acbf db67 f011 ae3a bebf
000004a0: 982e 01ec 20ed b0bf 105c f083 2c84 8fbf
000004b0: 3049 5195 b2ea a33f c086 31b1 36a0 a13f
000004c0: aeab 1db1 7207 c6bf 6018 790b bbca 8b3f
000004d0: 4495 fa07 0865 a0bf 18e0 ff30 96f4 b7bf
000004e0: c032 6a8f 1e42 973f e74c 2467 a4fd c03f
000004f0: 72f3 7632 54d8 a03f e45f 038f 1c72 adbf
00000500: 1055 b1ea 8f3b bebf 60e5 1382 8bb8 8a3f
00000510: 583c b7b0 3a5e ae3f f215 c24f 8a4e c1bf
00000520: f1ac 760b 590e b83f fd02 560f 09cd b7bf
00000530: 84ab d089 9855 b1bf 089d 17af 1ec6 973f
00000540: 8056 ab2c c42d 8f3f 0000 0000 9dce b0bf
00000550: de12 4ab4 51ba aebf e7d2 23d8 4f65 d43f
00000560: d0e1 4319 2ddf b23f 6b3b a0aa 73cb b53f
00000570: 1660 5599 ee47 bb3f 0681 f110 6b33 acbf
00000580: 0000 00c0 75e8 b1bf c95f 2292 2bde bb3f
00000590: 00f5 cf6a 1ec2 80bf 7cc9 018b d5d6 bc3f
000005a0: e0f3 ab01 478b c0bf d279 51ab 5f09 ad3f
000005b0: 7878 643c aa88 9d3f c8be cbd2 493b 8d3f
000005c0: 0000 0000 cd2a a93f 0ffa 6ba1 e48f bfbf
000005d0: 5051 533b 4fdd a93f 30c2 3208 f7e5 703f
000005e0: 0000 0000 d649 73bf 0000 0080 d816 a53f
000005f0: 0000 0000 2066 9d3f e09e 828b 3974 8bbf
00000600: 7d0f b1ce cfa1 a03f 800b 077d 169a b93f
00000610: 0000 00e0 1905 b7bf 8011 6832 93e6 c2bf
00000620: 8297 308d 42ff c93f bab3 04dc e59c b9bf
00000630: 649a 472b 697c 963f 0000 0000 26a3 b13f
00000640: b6de 2984 c218 b43f d07a 3bde d792 a1bf
00000650: 3446 fcaf 9648 a63f 5cfa 40f3 5275 a83f
00000660: 0000 0000 ba96 8a3f 2de2 7d70 e35d af3f
00000670: 0000 0080 b528 a63f 0000 00c0 75bd b53f
00000680: 7277 b207 0945 b7bf dc11 fa10 9a6f b73f
00000690: 30b3 66df de71 8d3f a21d 9133 1f0d b63f
000006a0: 7e48 94ca 8f38 ba3f cc6b 15b6 a0b3 9dbf
000006b0: 1bf0 0854 7129 c63f 803a 01da 6065 933f
000006c0: 409f 2408 34aa a4bf 8724 75f8 e49f a93f
000006d0: 201b 08c5 99b3 93bf 0000 00c0 2d30 b0bf
000006e0: 7cbc 1369 b02c a63f 809e 326f 4871 9bbf
000006f0: a812 b3b2 8225 953f 68c9 81d3 6ff4 8b3f
00000700: e4c0 3389 30bb b23f 403f 8c10 6a44 7e3f
00000710: 8cf5 62f5 a75f ac3f e0ad 3b35 aa39 893f
00000720: fe07 6186 1633 be3f 0000 0080 f34c a83f
00000730: f90a 943a a497 c1bf 3851 69aa 8f47 94bf
00000740: c276 5a0a d7e7 ce3f 7b35 5616 2cc1 b13f
00000750: d7ed 5644 1a1e a8bf 90e6 b216 51d6 b53f
00000760: 9a87 fda2 d20d c33f d63b a5b8 60f0 b53f
00000770: ade9 1b95 9b57 b1bf fc66 7f8b ec09 c73f
00000780: 1d7b 3e59 7f5d a8bf ac55 0bcb 8fc5 aa3f
00000790: 83e7 c908 ac6a ab3f 1621 1c41 dc66 a33f
000007a0: 708a 49ee aa91 853f 5879 859f a0ed b03f
000007b0: 7a1f 17ad 16e7 91bf 2746 7319 383a c93f
000007c0: fef7 39d5 7caf bf3f 6cfe ec8d f7c5 94bf
000007d0: 2432 eb16 33ef 963f ac04 f73b 0fdd a23f
000007e0: 74e0 020c b57c c23f 1d01 f7d4 2813 d4bf
000007f0: 0a26 0186 f4a4 b33f a0b5 4c3d 55cb b9bf
